Pytorch/cnn.pth (torch, 250839 bytes, 10 tensors)

conv1.weight f4 [6, 3, 5, 5]
000000 29 97 d4 bd ae 72 9b bd a1 02 f0 bd 24 4a 4b bd
       -0.10380394 -0.07590233 -0.117192514 -0.049631253
000010 e9 31 a2 bd cd d7 38 3e a0 30 ee 3c e0 ee 55 3e
       -0.07919676 0.18051071 0.02907592 0.20891905
000020 ec 11 2c 3e ba f1 6a 3d c9 78 5d 3e d7 11 b9 3d
       0.16803712 0.057359435 0.21628107 0.09036606
000030 0e 82 17 3e 72 b7 bc 3d 9e a5 40 bd 44 fa 49 3d
       0.14795706 0.09214677 -0.047032945 0.049310938
000040 13 98 91 3b 80 d6 aa bc 44 dd 9a bb 3c 39 38 be
       0.0044431775 -0.020854235 -0.004726084 -0.17990583
000050 ed b8 d2 3c b9 63 b6 bc f8 db 23 be d2 f8 c9 bd
       0.025722945 -0.022264348 -0.1600188 -0.09861912
000060 41 ea 37 be 03 1e 9e bd c7 4e ae bd 02 68 9b bd
       -0.17960455 -0.07720568 -0.08511119 -0.07588197
000070 6c 71 ef 3d d5 f3 a8 3d 68 b3 1c 3e 39 fb a6 3d
       0.116915554 0.08249632 0.15302813 0.08153386
000080 ad 9f 7c 3e c1 71 b8 3d 23 b5 46 3e 4d 52 84 3d
       0.24670286 0.09006072 0.19405036 0.0646101
000090 e6 ce 31 3e 40 dd d6 3d 0a 3f 4a 3d 6d 17 c4 3d
       0.17364082 0.10491419 0.049376525 0.095747806
0000a0 8c 03 43 3d 9e 4c c7 bd 5a 67 41 bc 0e c1 3d be
       0.047610804 -0.097314104 -0.011804426 -0.18530676
0000b0 6f 85 2f be d5 29 0d bd 24 31 fb bd 5f 8f 57 be
       -0.17140745 -0.034463722 -0.12265232 -0.21050785
0000c0 f3 63 f6 bd a6 a4 3d be 88 3c 99 bd 62 e9 37 3d
       -0.120307826 -0.1851984 -0.074822485 0.044900306
0000d0 f9 8d 87 3b 9d 66 46 bd 79 51 41 3d 20 b3 42 3e
       0.0041367975 -0.048437703 0.04719684 0.19013643
0000e0 68 d9 05 3e ed 78 1b 3e f3 8a 1d 3e 67 66 47 bd
       0.13071215 0.15182848 0.15385036 -0.048681643
0000f0 7c bb 41 bc 21 74 3a bd c3 14 7e 3d 3a 3d 72 bc
       -0.011824485 -0.045520905 0.06203152 -0.014785105
000100 8e 4e 81 bd 5d 8a 45 be 3b b2 67 be 9d be d2 bd
       -0.06313811 -0.19291063 -0.22626583 -0.10290263
000110 03 d8 bb bc be e2 27 3d f6 b8 45 bd 51 e8 79 3c
       -0.02293015 0.040987723 -0.048272096 0.015253142
000120 00 4c 65 bd e3 0c 9d bd 78 e6 96 bc 57 6a 2a ba
       -0.055980682 -0.076684736 -0.018420443 -0.0006500831
000130 39 53 20 3d b6 23 fe 3c a9 9e ac bd 53 c5 45 3c
       0.039141867 0.031022888 -0.084286995 0.012070972
000140 4d 0b 80 3d b1 12 d3 3d 70 59 f7 bc 17 ef 94 3d
       0.062521555 0.103062995 -0.030194014 0.07272165
000150 65 76 05 3e 81 31 9e 3c ba c8 db 3d bc 9c 15 3e
       0.13033445 0.019310715 0.10731645 0.1461057
000160 80 45 98 3d 82 5f 11 3e 4f ef 88 bd 87 71 ac 3c
       0.07435131 0.1419659 -0.066862695 0.021050228
000170 4b a1 84 3d b9 08 09 3d ea 3e 0f 3e 9f 99 7a bc
       0.06476077 0.033455584 0.13988844 -0.015295415
000180 d3 82 75 bd aa 04 6b bd 70 3f 82 3d 95 05 c1 3d
       -0.059939217 -0.057377495 0.06359756 0.09424893
000190 3d e1 1a be 73 e9 98 bc 73 7a 92 bc 01 ae 20 bb
       -0.15124984 -0.018666005 -0.017880654 -0.0024517777
0001a0 eb 33 a4 3b a4 d1 0d be 61 ee 3f bd 76 59 62 bd
       0.005011072 -0.13849503 -0.046858195 -0.055261098
0001b0 50 7c 06 3d 0b 11 f3 3d 65 66 56 3d 9a 80 d9 3c
       0.032833397 0.11868485 0.052343745 0.02655058
0001c0 98 35 de 3d d5 68 a2 3d 4e 6b 57 3d 00 83 a0 3d
       0.10850066 0.079301514 0.052592568 0.07837486
0001d0 b6 be 09 3d 5c 01 07 3e d2 28 9e 3d cf 62 bd bd
       0.03362914 0.13184112 0.077226296 -0.09247362
0001e0 91 12 87 bd cc 18 68 3d 92 05 ac 3d a6 6b a1 bc
       -0.06595338 0.056664273 0.083995 -0.019704651
0001f0 13 76 fc bc 9a 8d bc bd 61 2e e7 bc 0b 9e 1b 3e
       -0.03081802 -0.09206696 -0.028220357 0.15197007
000200 04 d2 de 3d d6 b3 08 3e 3b 07 06 3e 3b d5 71 3d
       0.10879901 0.13349852 0.13088696 0.059041243
000210 7f 5e 52 3e 9f 86 58 3e b8 c1 b5 3d 93 98 16 3e
       0.2054386 0.21145104 0.088748395 0.1470664
000220 4d 1d a2 3d 19 ad 66 3e 83 37 11 3e 3c 93 50 3e
       0.07915745 0.22526969 0.14181332 0.20368665
000230 6e 4a 41 3e 37 0d 0c 3e 8a f8 3f 3e ac 30 4a 3d
       0.18876049 0.13676916 0.18747154 0.049362823
000240 25 81 9a bb a9 63 1c 3b 7b 1d 8e 3d 8f aa 54 3d
       -0.0047151023 0.0023863113 0.06939217 0.05192047
000250 c5 13 05 bd 70 a6 94 3d b5 33 17 3e b8 4f 78 3d
       -0.032489557 0.07258308 0.14765818 0.0606229
000260 ea f9 62 3e 44 6e 71 3d 4b 59 da ba 68 94 3f 3d
       0.22165647 0.058943048 -0.0016658691 0.04677239
000270 85 dd b6 3c d4 27 47 bd 8d 10 dc 3d 2f 78 06 3e
       0.022322426 -0.048621967 0.10745344 0.13131784
000280 f9 91 9a 3d 38 52 66 be 90 21 49 3d b2 96 5c 3e
       0.07547373 -0.22492301 0.049104273 0.2154186
000290 c4 06 14 3e fe 19 b8 bd b8 cf 16 be 37 09 3e 3d
       0.14455706 -0.089893326 -0.14727676 0.046395507
0002a0 e2 52 a0 3e cf 80 60 3d 06 0d 40 3c af 62 1e bd
       0.31313235 0.05481034 0.011721855 -0.03866833
0002b0 00 3a ea bc 05 0d a0 3e 5d 48 0a bd 9b c1 a8 bd
       -0.02859211 0.31259933 -0.033760417 -0.08240052
0002c0 2f 56 33 3d d9 98 b9 3d f8 7b 28 be d9 80 eb bd
       0.043783363 0.090623565 -0.1645354 -0.11499185
0002d0 93 43 e2 3d 6d 20 2c 3d ba b0 e5 bc 31 cb 5a bd
       0.11048045 0.04202311 -0.028038371 -0.053416435
0002e0 a6 1f 93 3d 01 f8 ae 3d 92 c3 6d be c3 e5 11 be
       0.07183771 0.08543397 -0.23219135 -0.14247803
0002f0 a5 1f 4a 3e 0e 9a 23 3d de 77 93 3d 59 68 f3 bd
       0.19738634 0.03994184 0.07200597 -0.11885137
000300 86 ca eb 3c cc dc 6b 3e fa 23 ff bc f6 42 bf 3d
       0.028783094 0.23033446 -0.031145085 0.09338944
000310 83 28 79 bc 7a 01 96 3d 17 e5 81 3e a7 1e d9 3d
       -0.015207413 0.073245004 0.25370094 0.106015496
000320 84 10 49 be b7 af 88 3b f8 69 2e bd 53 21 4a be
       -0.19635206 0.0041713375 -0.04258153 -0.19739275
000330 66 f8 6f bd 77 d1 6e 3d 41 f8 e1 bd c7 15 56 be
       -0.0585865 0.05830523 -0.11033679 -0.20906745
000340 76 b7 03 be 7b 7a 46 bd d2 ab 6e bd 0b b1 94 be
       -0.12862954 -0.04845665 -0.05826933 -0.29041323
000350 be a3 3a bc d1 60 57 3d 2e 62 b8 bc 45 29 7c bc
       -0.011391578 0.052582566 -0.022507753 -0.015390699
000360 2f a8 5e be 02 17 39 be 24 29 8a 3e 41 7b e2 bd
       -0.21743844 -0.18075183 0.26984513 -0.11058665
000370 29 37 3e be 84 59 68 be f3 30 19 bd b7 0f 05 3e
       -0.1857573 -0.22690398 -0.037400197 0.12994276
000380 82 84 2b be 13 99 38 3e 71 5f bb 3d 66 36 94 bd
       -0.16749766 0.18027143 0.091490634 -0.07236938
000390 e7 c5 e7 bc 44 d4 c3 3d 0a 8c 0e 3e 54 14 26 3e
       -0.02829261 0.09561971 0.13920608 0.16218692
0003a0 d2 d3 ff bc b4 e9 11 be c3 f9 88 bc 29 34 86 3e
       -0.031228933 -0.14249307 -0.016720658 0.2621167
0003b0 2b f2 cc 3d 70 d7 86 3d b3 f2 e4 bd 99 47 0c be
       0.100071274 0.0658406 -0.11179104 -0.13699187
0003c0 af d2 3e 3e b9 f6 38 3d 2b a4 a4 3d cc f8 47 be
       0.18635057 0.045157168 0.08039125 -0.19528502
0003d0 c0 f4 da bd ae 54 14 3e 56 8b cb bc c6 05 81 3d
       -0.106912136 0.14485428 -0.024846714 0.06299929
0003e0 8b 69 0b bd ac 43 52 bc 47 8c 47 3b 68 5a 23 be
       -0.0340362 -0.012833517 0.0030448602 -0.15952456
0003f0 a8 a3 90 bd 00 36 e0 bd df 2f 20 be 93 58 bf 3d
       -0.07062465 -0.109478 -0.15643261 0.09343066

conv1.bias f4 [6]
000000 04 41 27 bd 67 bd a1 3e 81 fb b7 3e a8 f4 0b 3e
       -0.040833488 0.31589815 0.3593407 0.13667548
000010 ac 6c a5 3d 92 76 d7 be
       0.08077368 -0.4208265

conv2.weight f4 [16, 6, 5, 5]
000000 3f 9e a7 b9 0c dd fc bc 8c 57 0a bd 83 96 b9 3d
       -0.00031970625 -0.030867122 -0.033774897 0.09061911
000010 ab 98 5f 3d 98 ff 9e bc 9e 4b 9d bd d0 61 6f 3d
       0.054588955 -0.019408986 -0.076804385 0.05844289
000020 3e 10 8c 3d 30 74 bf bc bc 0b a2 3d 66 3c b4 bb
       0.068390355 -0.023370832 0.079123944 -0.005500364
000030 a9 43 d5 3b 79 d9 37 bd 15 b1 2c 3d 25 81 ab bb
       0.00650831 -0.044885132 0.042161066 -0.005233901
000040 95 fe dc 3c f7 50 04 bd 49 fa a2 3d ff 39 3e 3d
       0.026976863 -0.032303777 0.07957894 0.046442028
000050 af 7b 80 bc 2d 76 88 3d 72 b3 33 bd 34 f0 5c bc
       -0.015683977 0.06663165 -0.043872304 -0.013485003
000060 08 dc d1 b8 40 f3 a3 bd 0e 2c 02 bb 8c 76 44 bd
       -0.000100068806 -0.08005381 -0.0019862684 -0.047964618
000070 55 05 b3 bc d5 4f 6d bd 8b 01 23 bc 00 b8 f2 3c
       -0.021853128 -0.057937462 -0.009949098 0.029628754
000080 75 c4 68 3d 58 00 a7 bd cb b7 5a 3d a2 4c 49 3c
       0.05682798 -0.081543624 0.053397935 0.012286337
000090 28 31 81 3c e8 1e ee 3c 96 8e f1 3c 4f 7e 03 3e
       0.01577051 0.029067472 0.029486936 0.12841152
0000a0 38 ca 60 3d 53 7b 63 3c 5d 19 87 3d a8 5c 0b 3e
       0.05488035 0.013884383 0.065966345 0.13609564
0000b0 5d bb 89 3d 9f 2c dc 3d 3c ce 26 3e af 06 d1 3d
       0.0672519 0.10750698 0.1628961 0.10206353
0000c0 8c 12 5a 3d a9 10 34 3e 63 d5 b9 bd 0d 50 95 3c
       0.053240344 0.1758448 -0.090739034 0.018226648
0000d0 63 c7 d2 bd 36 92 a9 bd 6d f4 30 3d 81 37 f0 3c
       -0.10291936 -0.08279841 0.043201853 0.029323341
0000e0 79 ff 03 bd 74 e5 93 bb 80 10 b4 3c 3f 5b 43 3d
       -0.03222606 -0.004513437 0.021980524 0.04769444
0000f0 c5 4e 19 3c 1c 32 7e bd 0a 16 34 bb 38 62 7f bc
       0.009357159 -0.062059507 -0.0027478957 -0.015587382
000100 6b 46 69 bd d6 a9 31 b8 56 f6 70 bd 75 ca 00 be
       -0.05695192 -4.235826e-05 -0.058828674 -0.12577231
000110 2f c4 ea bc 59 94 1d be 63 64 1c bc 82 56 f9 bd
       -0.028658 -0.15388621 -0.009545418 -0.12174703
000120 40 5d fa bd cb 89 81 bd c1 e4 2a be 01 2b 05 3e
       -0.12224817 -0.0632511 -0.16688825 0.13004686
000130 ce f0 e1 3d 8e b6 c4 3c 04 57 14 3e 58 91 04 3e
       0.11032258 0.02401283 0.14486319 0.12946069
000140 99 a5 e5 3c 56 d5 92 3d 84 7c 25 3e b3 dc f8 3d
       0.028033065 0.07169597 0.1616078 0.1215147
000150 5d 44 88 bd 3f 55 76 3d aa 09 9e 3d 44 41 20 3e
       -0.06653664 0.06013989 0.07716687 0.15649897
000160 2d fc 6a 3d 6b 7c dc bd 8e 73 25 bc 3b c4 a8 bd
       0.0573694 -0.10765918 -0.010098351 -0.08240553
000170 d6 7b 9f bc f1 6d b4 bc 5f 5d ac bd 8f b2 69 bd
       -0.01946823 -0.02202508 -0.084162466 -0.057055052
000180 39 16 98 bd 6c 96 89 bb b8 dd dd bd ff 9d 01 be
       -0.07426114 -0.00419884 -0.10833305 -0.12657927
000190 c2 f5 51 3d dd 77 26 bb 84 83 96 3b ec f5 ea 3d
       0.051259764 -0.0025401034 0.0045933146 0.11472687
0001a0 49 40 bc 3c fc ad 4d 3d c6 1f fd 3d 05 86 07 3e
       0.022979872 0.050214753 0.12359576 0.13234718
0001b0 dd 2f 27 3e 96 db 1b 3d f2 db da 3c 68 3e f8 3d
       0.16326852 0.03805121 0.026716206 0.12121278
0001c0 c1 69 43 3e e0 1b e4 3d 5b c5 34 3c 15 80 64 3d
       0.1908331 0.11138129 0.011033381 0.05578621
0001d0 95 b2 da 3c 99 e5 9a 3d 66 ef ae 3d da dc 04 bc
       0.026696483 0.075633235 0.085417554 -0.008109296
0001e0 27 28 5e bd 9a 70 24 bd 59 27 ad bd d0 d7 d3 bd
       -0.05423751 -0.040146448 -0.084547706 -0.10343897
0001f0 90 1e a9 bd 3f e2 12 bd 6d 24 c1 3c a0 fb 46 3d
       -0.082577825 -0.035860296 0.02357694 0.048579812
000200 59 20 4c 3d 83 75 b7 3d 32 44 44 3b ca 88 65 3d
       0.049835537 0.089579605 0.0029947874 0.056038655
000210 ec 68 b8 3d df 16 47 3c bc a3 a1 3d 7f c4 37 3b
       0.09004387 0.012151449 0.07892558 0.0028040705
000220 b2 8a cf 3c 0d 32 0b bd 3f 37 b0 3d 03 2c 39 bc
       0.02533469 -0.03398328 0.08604287 -0.011301997
000230 2e 3a a8 3d 5c 9e ef 3d d1 17 fa 3c 89 32 12 bd
       0.08214222 0.117001265 0.030528935 -0.035692725
000240 b7 7d 30 3d f8 b8 54 3d e1 1e 00 bc 98 bf 84 3d
       0.04308864 0.051934212 -0.007819862 0.06481856
000250 86 51 07 3d 7e 43 79 3d 52 3c d0 3b 87 e8 08 bd
       0.03303673 0.06085538 0.006354847 -0.03342488
000260 d8 35 e6 3c c8 5f 4c 3d 52 41 f3 3c fa b9 43 3d
       0.028101847 0.04989603 0.029694233 0.047784783
000270 42 db b4 bc ba 06 7f 3d 12 ec 7d 3c 05 18 e5 bc
       -0.022077207 0.062262274 0.015498178 -0.027965555
000280 fc b8 f2 bc 69 2e d5 bd 1a 18 f7 bc 6a 76 b3 bc
       -0.029629223 -0.10409243 -0.03016286 -0.02190705
000290 08 46 b0 39 17 bb f4 bc 10 0c f1 3c a9 9c 9a bc
       0.00033621513 -0.029874368 0.029424697 -0.01887353
0002a0 c8 ae 54 3d d4 d5 81 bd a6 3e 83 3c ab 47 7e bd
       0.051924497 -0.063396126 0.016021084 -0.062080067
0002b0 ae a5 f9 bb 33 0f 95 bb 21 55 43 bd 05 b7 a5 3d
       -0.0076186275 -0.004548931 -0.047688607 0.08091549
0002c0 6e b4 91 3d ff b1 df 3d 0a b1 81 3c cb 14 31 3e
       0.07114492 0.10922622 0.01583149 0.17293088
0002d0 83 be ab 3d 89 e9 1e bd 0e 36 69 bd 05 74 79 3d
       0.083859466 -0.038796935 -0.056936316 0.06090166
0002e0 19 00 8f 3d 8f 7c b8 3c 83 45 94 3d f7 e1 71 bb
       0.069824405 0.022520332 0.07239821 -0.0036908367
0002f0 d8 ef e5 3d a5 ce 1e 3d b6 d7 a9 bc 8b 1e a8 3d
       0.11227387 0.03877129 -0.020732742 0.082089506
000300 10 81 7a 3d 9f 00 7b 3d 1b 57 84 3d 43 d0 90 3d
       0.06115824 0.06127989 0.064619265 0.07070973
000310 aa 60 41 ba f3 b9 47 bc 6a 5c 0a bd d9 54 83 3d
       -0.000737677 -0.01219033 -0.03377954 0.06412668
000320 58 22 e5 bc fc de 91 bd 81 71 d5 3c ac ad 0b 3d
       -0.027970478 -0.07122609 0.0260551 0.034101173
000330 de ad 96 3d 06 f1 c5 bc a0 b1 3b 3d fa 8f 11 3d
       0.07357381 -0.02416278 0.045823693 0.035537697
000340 07 de b0 3d 48 fa 35 bd f1 3a 6e bd 25 61 18 bd
       0.08636098 -0.04442814 -0.05816168 -0.03720202
000350 ce 9a 48 bd df c8 40 3d 78 75 a3 3d 65 1b 7a 3d
       -0.04897576 0.047066566 0.0798139 0.06106128
000360 3f 29 c8 3c 74 fa 65 bc 0f 90 00 3d 69 9a aa 3d
       0.02443373 -0.014036763 0.031387385 0.08330233
000370 43 a4 8e bd ca 9c c9 3c 14 e8 71 bd 8e 25 f4 3c
       -0.06964924 0.024610896 -0.059059218 0.029803064
000380 08 d8 99 bd ad 5a 03 bd 34 6f f7 bc 63 58 9c bb
       -0.07511908 -0.032068897 -0.030204393 -0.0047712787
000390 8e fb 86 bb 7a d2 65 bc b2 29 d2 bc 09 7d 04 bd
       -0.004119343 -0.014027232 -0.025654647 -0.032345805
0003a0 ba b6 a0 bd 47 ef dc bd ef fc ef bd e7 bc 21 3d
       -0.07847352 -0.10787826 -0.11718165 0.039486792
0003b0 d0 e4 36 bd 88 4e bf bc 2f 7d 86 bc 10 2c 24 3d
       -0.044651806 -0.023352876 -0.016417114 0.040081084
0003c0 4b fc 9e bd 8f ae 69 bd 7d 91 c6 bc ae e4 03 bc
       -0.07762965 -0.057051238 -0.024239296 -0.008050127
0003d0 84 4d 9a bc f2 5d 8a bd 77 e2 a6 bd b3 09 99 3c
       -0.01883579 -0.067562 -0.081486635 0.018681383
0003e0 45 5f 83 3c b1 a9 19 3d e3 17 2e 3c 0c a5 8f bd
       0.016036639 0.037515346 0.010625812 -0.07013902
0003f0 9d 31 ce bd 75 a6 7d ba a3 51 c4 bd 11 6a 30 3d
       -0.10068057 -0.0009675988 -0.095858835 0.043069903

conv2.bias f4 [16]
000000 d0 a9 32 3d 75 94 c5 3c fb e6 33 bd 23 0c ec 3d
       0.043618977 0.024118641 -0.043921452 0.115257524
000010 cf 2c 95 3c 5a 08 d0 ba 09 5a da 3d ef 57 35 be
       0.018209843 -0.001587163 0.10661704 -0.17709325
000020 66 c7 c0 bc f1 92 69 3e 64 1a f4 bc 10 06 f6 bc
       -0.02353258 0.2280996 -0.02979774 -0.030032188
000030 28 69 09 3d fc 5b 6b 3d 93 0f 85 be de 1d cd 3c
       0.03354755 0.05746077 -0.25988445 0.025038656

fc1.weight f4 [120, 400]
000000 13 f5 ee 3c 78 5b 57 3d d5 2b e6 3c 3e 2d d1 3c
       0.029169595 0.052577466 0.028097073 0.025534268
000010 96 46 21 3d 72 1f ea 3c 34 2e d5 3c 5f 40 31 bd
       0.039373957 0.028579447 0.026023008 -0.04327428
000020 54 4d 27 bd 5c c8 43 3d c7 ae 22 bc 64 0c 49 bd
       -0.04084523 0.0477985 -0.0099293655 -0.049084082
000030 24 57 4e 3c f7 8f 6a 3c a3 ef 26 bd 9a e8 89 3c
       0.012594018 0.01431655 -0.04075588 0.016834546
000040 06 f0 2b 3d 7e 15 11 3d 52 c9 6a 3c 72 14 15 bc
       0.04197695 0.035420887 0.014330225 -0.009099113
000050 85 7b 73 3d 46 62 68 3d f7 52 13 3d f6 e4 cc bb
       0.05944397 0.056734346 0.035967793 -0.00625288
000060 dd 95 ae 3c 85 6a 2a bd 83 47 c0 3c 84 54 55 bc
       0.021311695 -0.04160549 0.0234716 -0.013020638
000070 eb c2 78 3c cb 95 0e 3d 1c 8c 33 3d 3b 40 38 bd
       0.015183191 0.034810822 0.04383479 -0.04498313
000080 93 8c c2 3c 8c 08 3e bd ba 36 66 bc 27 74 a1 3c
       0.023748672 -0.04639487 -0.014051134 0.019708706
000090 81 f7 19 bc 13 c1 02 bd bf ed d8 bc fd 8e b4 bc
       -0.009397388 -0.03192241 -0.026480554 -0.022040838
0000a0 a3 dc 36 3b 7c 53 aa 3c f1 a6 a8 bb 03 17 35 bd
       0.0027902506 0.020791762 -0.005146854 -0.0442114
0000b0 c7 e3 d6 bc 2d 04 43 bd c2 77 39 bd a5 e6 3a bd
       -0.02623166 -0.047611404 -0.045280226 -0.045630116
0000c0 c6 aa 74 3c 60 cd 38 bd 7d e8 4f 3d 93 03 7f bc
       0.014933294 -0.045117736 0.050758827 -0.015564817
0000d0 a2 f2 17 bc c0 a0 fd 3c f1 82 0f bd a1 20 52 ba
       -0.009274157 0.03096044 -0.035036985 -0.00080157263
0000e0 28 ba fe 3a 57 63 71 3c f3 2e 19 3d 70 23 92 bc
       0.0019434141 0.014733157 0.03739829 -0.017839164
0000f0 92 82 7d bd 2a 75 45 bd ad 53 c8 bc c5 1c f0 3b
       -0.0618921 -0.04820744 -0.024453962 0.0073276483
000100 fb 21 2a bd 42 ec 5c bd ab 65 a0 bc 68 5b 3c bd
       -0.041536313 -0.05393625 -0.019579729 -0.04598561
000110 3e 71 ca bc 4b db 0f bd fa f7 ae bc 07 02 02 3d
       -0.024712201 -0.035121243 -0.021358479 0.031740215
000120 a9 eb d0 3c 76 83 35 3d 37 53 e3 3c 10 c5 2e 3b
       0.025502997 0.044314824 0.02774964 0.0026667751
000130 c9 09 9a 3c c2 b1 fa 3b 2b 43 13 3d d1 63 87 3c
       0.018803494 0.007650585 0.03595273 0.016527088
000140 2c 4a e7 3c 7d 56 c9 bc c6 99 2d bd f3 1a 4e bc
       0.02823361 -0.024577374 -0.042382978 -0.012579667
000150 09 d9 24 bd bf 67 01 3d 36 12 8a bd ab 52 9b 3c
       -0.040246043 0.03159308 -0.06741755 0.018960318
000160 2d 71 6a bb 10 a3 a0 3c 4c d2 e3 3b 2b 96 8c 3c
       -0.0035773024 0.019609004 0.0069525596 0.01716145
000170 37 1b 8b bd 6a 84 89 bc a4 68 52 3c 19 82 04 bd
       -0.067923 -0.016786773 0.012842331 -0.032350633
000180 98 59 bf 3c d9 05 fe 3c 64 c8 fb 3c 99 2e fb bc
       0.023358151 0.031008648 0.030735202 -0.030661868
000190 9b 43 ce 3c 1c 0a 27 bd 10 66 cd bc ba 54 d9 3b
       0.025178721 -0.040781125 -0.025073081 0.0066324146
0001a0 de a0 6c 3c d2 93 b0 bc ce 6f 06 3d 39 b5 37 bd
       0.014442651 -0.021554861 0.03282147 -0.04485056
0001b0 79 f4 28 bd 1b 91 95 bc 89 fd 1c bc 2a f5 9a bc
       -0.041248772 -0.018257668 -0.009581932 -0.018915731
0001c0 6c f8 59 3b 44 1e 23 3d 67 0a 35 bc 7a 99 e9 3b
       0.0033259643 0.039823785 -0.011049843 0.0071288915
0001d0 7e 1d f5 bc f1 af 4b bd 03 9f 16 bb 12 50 d9 ba
       -0.02992129 -0.049728338 -0.0022982962 -0.0016579649
0001e0 41 dd 2f bd d7 34 42 3d 1c c8 00 bc 99 7c 37 3d
       -0.042935614 0.047413673 -0.00786021 0.04479656
0001f0 a4 15 23 bd 37 85 16 3d 06 5f 08 bb d1 b6 50 3d
       -0.03981556 0.036748137 -0.0020808592 0.050955597
000200 27 7e 57 bc ed b7 03 3d 21 0e 2f 3d 9f 2c 29 bd
       -0.013152636 0.032157827 0.042738084 -0.04130232
000210 35 7a dd 3c 14 3b c0 3c 41 0e 34 bd 47 c7 28 bd
       0.027035812 0.02346567 -0.043958906 -0.04120567
000220 66 dc 2d bd 0a 86 2e bd 65 37 12 3d 50 8b 8b 3c
       -0.042446516 -0.0426083 0.03569736 0.017034203
000230 a4 21 77 3b d9 9f b6 bb 91 5a 36 3b cd ce e5 bc
       0.003770926 -0.0055732545 0.0027824978 -0.028052712
000240 2a 51 93 3c 7b f7 91 bc e5 19 10 3c ef 18 cc bc
       0.017983038 -0.017818203 0.008795236 -0.024914233
000250 13 03 2d 3d 24 d4 18 bc a5 75 90 3c a0 b1 28 bd
       0.04223926 -0.009327922 0.017634222 -0.04118502
000260 15 66 6f bd ee 98 5c bb d5 c6 86 bc 7b e8 9e bb
       -0.058446962 -0.003366049 -0.016452232 -0.004849491
000270 bd b1 2b bc d9 cd 93 bd 09 be f4 bc eb 71 00 bc
       -0.010479388 -0.07216997 -0.029875772 -0.00783966
000280 34 b9 52 3c 82 f7 1a 3c 7e 5d 04 3d 63 c5 ea bc
       0.012861539 0.0094584245 0.032315724 -0.028658574
000290 f4 54 28 bd 84 35 04 bd e4 b1 86 bc 9f a0 05 bd
       -0.041096643 -0.0322776 -0.016442247 -0.032623883
0002a0 68 50 88 3c ac c6 3f bc 83 2c 5a bd 04 82 4d 3c
       0.016639903 -0.011705082 -0.053265106 0.012543205
0002b0 cd 50 f7 bc a5 a4 f9 3b db e2 22 3d 3e 8b ae 3d
       -0.030189896 0.007618504 0.039767127 0.08522652
0002c0 46 a3 5a 3d 3f dd 05 3d d0 cd 8d 3d 3a b5 79 bc
       0.053378366 0.0326817 0.06924021 -0.015240962
0002d0 25 3d b0 bb d8 7c 2d bc cc 3d 10 bd 28 76 17 3d
       -0.0053783827 -0.010588847 -0.035215184 0.036977917
0002e0 3f ea 32 bd 8a bb 12 3d b4 c9 46 3d 13 4f af 3c
       -0.043680426 0.035823382 0.048532203 0.02140001
0002f0 10 d9 40 bd f5 b8 93 3c aa 76 50 3d 65 c2 40 3d
       -0.047082007 0.01803253 0.050894417 0.04706039
000300 9d 2e 9e bc b6 bc 55 3d bb fc 16 3d 2a 47 ef bb
       -0.019309336 0.052181922 0.036862116 -0.0073021846
000310 41 88 db 3c 61 55 42 bd f4 35 bf b9 40 a6 85 3d
       0.02679837 -0.047444705 -0.00036470557 0.0652585
000320 6c f4 f3 bc 1b 9e 0a 3d 53 6a be 3c 49 6d aa 3c
       -0.029779635 0.033842187 0.023244059 0.020804064
000330 f9 8d 28 3d 08 3b e8 3c 11 1d ba 3c b6 65 a3 3c
       0.04115102 0.02834846 0.022718938 0.01994596
000340 7a 5d d5 3c a1 58 71 bc 71 b4 ad 3c 50 83 50 3c
       0.02604555 -0.014730603 0.021204205 0.01272662
000350 98 ca 2e bd 34 72 e8 bc 4d c0 36 3c af 31 f8 bc
       -0.042673677 -0.028374769 0.0111542465 -0.030297128
000360 b7 67 da 3c e8 69 3f bd 2e d1 8d 3b c5 e6 b2 3b
       0.026660783 -0.04673186 0.0043279147 0.005459639
000370 83 99 38 3d 16 11 ec 3c f0 ab 65 bc ae 05 0e bd
       0.045068275 0.028816741 -0.014018044 -0.034673385
000380 79 db e4 3c 12 d5 60 3b 87 01 c6 3c f0 60 03 bc
       0.027936684 0.0034306687 0.02417065 -0.008018717
000390 8f 24 63 bc 54 a0 32 3d 64 9e 81 bc d2 f6 08 3d
       -0.013863697 0.043609932 -0.015822597 0.03343851
0003a0 c8 10 34 3c ae d9 ec bc 11 f1 e3 bb c9 89 7c bd
       0.010990329 -0.028912392 -0.0069562276 -0.06165484
0003b0 7f 0b c5 bc d1 08 d6 3b c4 f8 88 3c 34 50 64 bd
       -0.024053333 0.0065318127 0.016720183 -0.05574055
0003c0 74 d3 42 bc e8 c3 82 3c ff 19 76 3b 4e 40 91 bc
       -0.011891235 0.015962556 0.0037552116 -0.017730858
0003d0 c6 4a 14 bd d3 6d c0 bc ed db 32 bd c0 d2 76 3b
       -0.036204122 -0.023489868 -0.04366677 0.0037662238
0003e0 6c f6 f1 bc 55 8b f1 3b 10 a9 8c 3d ad 48 b8 bc
       -0.029536448 0.007371346 0.068681836 -0.022495592
0003f0 ef 6a 1f 3d e2 fa 57 3c 99 5b ee 3c d3 d0 15 bd
       0.03892034 0.013182374 0.029096412 -0.036576103

fc1.bias f4 [120]
000000 29 33 f0 bd 66 66 25 3d 53 bc c4 bc d3 7b 34 bd
       -0.11728508 0.040380858 -0.024015581 -0.0440634
000010 f8 00 06 ba bf 3d 90 bc e9 14 99 3b 23 6a 62 bc
       -0.00051118387 -0.017607568 0.004671682 -0.01381925
000020 bf 8d cd bb 5f cc 98 bd 9b 73 50 bd 4b 78 6d 3d
       -0.006273001 -0.07460856 -0.0508915 0.05797605
000030 ba aa aa bc 63 62 49 3d b0 1e a9 bc 69 9c 50 bd
       -0.020833362 0.049166095 -0.020644516 -0.050930414
000040 31 df 96 ba 2e 06 24 3d 51 8c 6b 3d fd 60 47 3d
       -0.0011510608 0.040044956 0.057506863 0.04867648
000050 25 07 8a bc 6b a3 ef 3c c2 d7 1d 3d a7 7f 33 3d
       -0.01684911 0.029252728 0.03853584 0.04382291
000060 8c cc cf 3b 2e 5e 33 bd c9 4f bb bb 43 d3 32 bd
       0.0063415226 -0.04379099 -0.0057162982 -0.043658506
000070 26 04 5f 3b 27 0e c7 3d b6 ca 32 bd 7b a9 dc bc
       0.0034029572 0.09719496 -0.04365035 -0.026936283
000080 2a 74 b8 bb 2f 86 b3 3d 1d d8 bc bd 28 c0 a1 3d
       -0.005629082 0.08765828 -0.09220908 0.07897979
000090 be 78 b6 3d e5 bd a9 bb b3 74 c6 bc 34 ae 0a 3d
       0.089097485 -0.005180108 -0.024225568 0.03385754
0000a0 4b 88 34 bd bd f6 b5 3b 01 54 aa bc da 90 66 39
       -0.04407529 0.005553095 -0.02079201 0.0002198847
0000b0 66 80 45 bd 76 1c 4b bd 20 0c b6 3d 6c 97 cc 3c
       -0.048218153 -0.04958769 0.088890314 0.024974547
0000c0 66 40 39 3c b2 f3 c6 3c 08 11 d1 3c e5 29 88 3d
       0.011306858 0.024286125 0.025520816 0.06648616
0000d0 82 45 d0 bc c6 95 9c bd dc 14 03 3e 08 99 a4 3c
       -0.025423769 -0.076457545 0.12800926 0.020092502
0000e0 52 44 b9 3c 63 94 bc bc 96 28 84 bc fa 34 d4 3c
       0.022615585 -0.023019975 -0.016132634 0.025904167
0000f0 34 a5 3f 3d d2 73 2b bc 31 25 c8 bc a2 01 76 3b
       0.04678841 -0.010464625 -0.024431797 0.0037537594
000100 ef b7 1e bc 0a 4c c3 3d c6 3e 00 3d 37 e4 2b 3c
       -0.009687408 0.09535988 0.031309865 0.010491422
000110 40 07 01 3c cb cb 8d bd f4 c6 9c 3b 45 f9 95 bc
       0.007875264 -0.06923636 0.0047844592 -0.018307338
000120 e1 da 18 bd e5 3e b4 3d b4 8c d0 3c 93 ce 58 3d
       -0.037318114 0.08801059 0.025457717 0.05293138
000130 a9 23 de bc 5c 38 e4 3c f2 1c a7 bb 05 18 43 3d
       -0.027116613 0.027858905 -0.005099886 0.04763033
000140 53 3b 31 3c a7 8b c5 3d 89 4f dc 3b b5 7f 4a 3c
       0.010817367 0.09645777 0.0067233485 0.012359549
000150 66 09 eb 3b 5d ab bd 3d bf aa 53 3c 3c 09 0e 3c
       0.0071727512 0.092612006 0.012919127 0.008669194
000160 d5 e6 18 bd 34 47 6d 3d 3a 72 eb 3d f2 57 67 3b
       -0.037329514 0.057929233 0.11496396 0.0035300222
000170 ff 9e a1 bc 26 bd 46 bd b4 51 77 bb 91 d5 00 3d
       -0.019729136 -0.04852023 -0.0037737908 0.031453673
000180 18 11 de 3c de 17 9b 3d 15 a6 15 3c ce 4d f7 3c
       0.02710776 0.07572912 0.009133835 0.030188467
000190 62 93 29 bd 74 75 9f bb 78 59 29 bd 57 d8 25 3d
       -0.04140032 -0.0048662964 -0.04134509 0.04048952
0001a0 08 1f 03 3b cc b1 97 bd 3c c2 c7 3d ef 4e a6 3c
       0.002000751 -0.07406959 0.09753844 0.02030131
0001b0 9f ae 6d bb 5c 40 52 bd c1 85 13 3d 45 cf d8 3c
       -0.0036267412 -0.05133091 0.03601623 0.026466021
0001c0 ee 0f 25 3d df 49 d8 3c 49 ac 76 bd 10 71 58 3d
       0.040298395 0.026402412 -0.060222898 0.0528422
0001d0 96 22 19 3d b4 eb cd bb 32 da e5 3c 92 1e ba bc
       0.0373865 -0.0062842015 0.028058145 -0.022719655

fc2.weight f4 [84, 120]
000000 9d e5 b4 bd 12 b9 87 bc 88 2d 38 3b e8 5c 9f bd
       -0.08832858 -0.01656774 0.002810331 -0.07781392
000010 58 a2 9a bd 75 cd 86 bd 3f 14 1a 3a df da 89 3d
       -0.07550496 -0.065821566 0.00058776507 0.067311995
000020 47 03 a7 bd 35 83 9f bd 03 f7 3a bd ea b6 37 3d
       -0.08154922 -0.07788698 -0.045645725 0.044852175
000030 e8 01 aa 3d 1b 49 9a 3c de ec 02 3d 75 31 64 3d
       0.08301145 0.018833688 0.031964175 0.05571123
000040 e1 76 af 3d 97 1a 8f bd 57 b1 c9 3c 05 a8 c1 bb
       0.08567596 -0.069874935 0.024620695 -0.005909922
000050 be 70 78 bd f3 35 58 3d 69 bd 63 3d 61 68 50 bd
       -0.060654394 0.052785825 0.055600557 -0.050880793
000060 89 3c 90 bd f1 ee 7a bd c6 20 ce 3d 13 1e 78 3d
       -0.07042796 -0.06126303 0.10064845 0.060575556
000070 b9 97 21 bd 94 18 8a 3d bb c8 fb 3b eb 0f 49 3d
       -0.039451335 0.06742969 0.007683841 0.049087446
000080 13 b7 f0 3c 07 84 b9 bc e0 54 a6 3d e2 ea c1 bb
       0.029384172 -0.022645963 0.08121657 -0.005917893
000090 f2 0d a8 bc 15 bf 5a bc c4 51 04 bd 64 cc 2c bd
       -0.020514462 -0.013351222 -0.03230454 -0.04218711
0000a0 29 b9 95 bd 88 f1 75 bd 02 89 7c bd 63 04 dc 3c
       -0.07310707 -0.060044795 -0.0616541 0.02685756
0000b0 ab 6b 95 3d a9 d1 91 3d 1d 36 21 3c 8b be 58 3c
       0.07295927 0.071200676 0.009839562 0.013229023
0000c0 88 45 a1 3c 3d 48 99 3d 9d 0f 9d 3d 5c a6 c4 3d
       0.019686475 0.074844815 0.076689936 0.09602043
0000d0 da 3b 96 bd 4c 9c 8b bd ac bf 42 bd 41 85 e6 ba
       -0.073356345 -0.06816921 -0.047546074 -0.001758732
0000e0 24 5a b9 bb 8b 1e 8c 3c a6 43 8d bd 8f 12 98 3d
       -0.0056564976 0.017104408 -0.068976685 0.07425415
0000f0 e5 1a 9d 3b d1 b4 58 3d 1f e3 89 bd dd 18 de 3b
       0.004794466 0.052906815 -0.06732773 0.0067778663
000100 92 11 af 3d 00 21 a1 3d 9d 49 a0 bc 93 59 d5 3d
       0.08548273 0.078676224 -0.019566352 0.104174756
000110 1d 05 03 bd c4 e7 b8 3d e8 35 ad 3d 7c 27 1c 3c
       -0.0319873 0.09028581 0.084575474 0.009530898
000120 ed 2e a4 3d 3a f6 ef 3c 54 03 b5 3d e9 b2 84 bb
       0.08016763 0.029292215 0.088385254 -0.004049648
000130 10 46 2c bd eb f5 b6 3a 67 6f 96 bd 64 ba 1c bd
       -0.042059004 0.0013958787 -0.07345467 -0.038263693
000140 11 b9 b2 3d 2d 5d 6a 3c 62 58 82 3d 41 2c 3b bd
       0.08726705 0.014304441 0.06364514 -0.0456965
000150 59 db 4a bd 7a c6 88 3b 79 cd d4 3d 5f 40 8b bc
       -0.049525592 0.004174051 0.10390753 -0.016998468
000160 e1 a9 f4 3c 62 61 f0 bc 85 58 18 3b 0a 04 0a 3d
       0.02986616 -0.02934331 0.002324612 0.03369526
000170 69 ff cb 3b 87 ee 7d bd fd 14 a9 3d e7 ba 70 bd
       0.0062255156 -0.061995056 0.08255956 -0.058771994
000180 fa e1 22 bd 4c c0 06 bd ce d3 f5 3c 4c fc ae 3c
       -0.03976629 -0.032898232 0.030008223 0.021360539
000190 57 94 82 3b 8c a9 12 3c 7f b9 d4 bc 3f 29 a3 bd
       0.0039849686 0.008951556 -0.025967358 -0.079668514
0001a0 b9 81 1f 3d 6c 5e 5b 3c 39 e2 a0 3d ab 1e c2 3d
       0.038942073 0.013389211 0.078556485 0.09478506
0001b0 9b 05 80 bd e2 85 08 3c 86 58 84 bd 22 98 89 bd
       -0.06251069 0.008332701 -0.06462197 -0.0671847
0001c0 5a d2 84 bd 36 ce ac bd d8 19 7e 3c d2 d9 22 bd
       -0.06485434 -0.08437769 0.015509091 -0.03975851
0001d0 44 9d 2d bd d4 31 59 3d 42 bc 3f 3d 2d f9 e9 3c
       -0.04238631 0.053026035 0.046810396 0.0285612
0001e0 de c2 a1 3d 25 2d 03 3c a8 15 80 bd 5e 27 b9 3b
       0.07898496 0.008006369 -0.062541306 0.005650445
0001f0 9a 18 c3 bd 64 2a 86 3d c4 ca 40 3d fc 70 68 bd
       -0.09526177 0.06551054 0.047068372 -0.056748375
000200 e1 ee 61 3d 54 8a b3 3d b6 16 6c 3c 57 c7 56 bd
       0.055159453 0.08766618 0.014409712 -0.0524362
000210 b8 8e 0d bd 60 26 8b bd 22 72 fc 3a 90 47 f3 3c
       -0.034559935 -0.06794429 0.0019260088 0.02969721
000220 29 14 15 bd f3 9c b7 bd a7 e1 94 bd 02 74 a3 3d
       -0.03639618 -0.089654826 -0.07269602 0.07981111
000230 18 8b 9d 3d 16 9e 92 3c 71 42 09 3d e1 d9 14 3c
       0.07692546 0.017897647 0.03351063 0.0090851495
000240 b6 78 8f bd b0 87 ff bc 3f 36 92 3d 1e 9d 9f 3d
       -0.07005446 -0.03119263 0.07139253 0.077936396
000250 6a 5b e3 3c d3 27 6d 3d e9 89 6d 3d 59 1f 9c bd
       0.02775355 0.057899307 0.05799285 -0.076231666
000260 ef 2e 9a 3c 4e 63 84 3c 77 72 9c 3d b5 eb 42 3d
       0.018821208 0.016160633 0.0763902 0.04758807
000270 9e f8 d3 3d 17 11 6d 3d 49 71 1d bd f4 6b f6 bc
       0.10350154 0.057877626 -0.038438115 -0.030080773
000280 a1 ba e8 3a 2a b1 dc 3d e6 15 50 bc 42 e1 c7 3d
       0.0017755815 0.10775979 -0.0127005335 0.097597614
000290 96 3f 20 bc 97 69 cb 3d e0 66 44 3c 54 56 9f 3d
       -0.009780785 0.09932249 0.011987418 0.07780138
0002a0 ca a8 c2 bd 03 f4 ce 3d 6c 03 48 bc 2c 01 a4 3d
       -0.0950485 0.10105135 -0.012207847 0.08008036
0002b0 c9 f1 9e bd e6 26 53 bd 6d 86 68 bd 76 c5 b5 3d
       -0.077609606 -0.05155077 -0.056768823 0.08875553
0002c0 35 93 4f 3d 4e 44 60 3c 36 7b 29 3c 4c 99 40 3d
       0.050677497 0.01368816 0.010344317 0.047021195
0002d0 4f ee 82 bd b0 e3 90 bd 5e 58 8d 3d 6c e6 9a bd
       -0.0639311 -0.07074678 0.0690162 -0.07563481
0002e0 22 f7 a1 bd 9e db 21 3d ff b7 e5 3c be a9 27 3b
       -0.07908465 0.039516084 0.028041838 0.0025583352
0002f0 0a 89 d4 bd 50 fc 9b 3d 15 01 a8 bd 58 51 f0 bc
       -0.103777006 0.07616484 -0.082033314 -0.029335663
000300 91 d1 81 3d 92 3c 9b bd f8 ba 65 3c fd 6a 57 bd
       0.063388 -0.07579912 0.014021628 -0.052592266
000310 8c e2 e7 3d e7 ae af bc 5c 54 8f 3d f6 b6 09 bc
       0.11322507 -0.021445705 0.06998512 -0.008405438
000320 b9 9f 1a bd ab 87 1f 3d 8b 0f 90 3c f8 b2 d6 3c
       -0.03774998 0.038947742 0.017585536 0.026208386
000330 c7 9f 0b bd 58 76 9e bd 12 45 c7 3d 59 26 5e bc
       -0.034087922 -0.07737416 0.09729971 -0.0135589475
000340 14 5a 7a bc 8e e4 47 bd 2a 97 58 3d d7 67 9f 3d
       -0.015280265 -0.04880195 0.052878536 0.07783478
000350 00 cb 6c 3d 2a aa 4b 3d e7 ac 62 3d ea b2 7f bc
       0.057810783 0.049722828 0.055340674 -0.015606621
000360 f7 06 3b 3d 05 6a a4 3d e8 0f 08 3c cf 6d 12 bd
       0.04566094 0.08028034 0.008304574 -0.035749253
000370 05 5f 66 3d 1d 66 94 bd 5b d0 d1 3d 0b b7 10 bd
       0.05624296 -0.07246039 0.10244819 -0.035330813
000380 aa 7a a6 b9 3e fb 68 3d e3 48 16 3c 6b ce 04 3c
       -0.0003175338 0.05688023 0.009172651 0.0081058545
000390 8e 23 a9 bd 00 5b 73 bd d6 c9 17 bd aa 9d e0 bc
       -0.08258735 -0.059412956 -0.03705772 -0.02741893
0003a0 3f 1c 15 3d 08 6d 84 bd 61 1a e8 3d 37 8e 90 bd
       0.03640389 -0.064661086 0.113331564 -0.07058375
0003b0 73 9a 7f bd 41 80 26 bd f9 4b 9f bc 91 09 09 3d
       -0.062403154 -0.040649656 -0.019445406 0.03345639
0003c0 31 c3 54 3c e6 24 81 bd a4 36 84 3d 4f 3f bb bd
       0.01298599 -0.06305866 0.06455734 -0.091429345
0003d0 9c 53 c1 bd db 07 ef 3c b4 44 e8 3b c4 97 72 3d
       -0.09439775 0.02917855 0.007088268 0.059226766
0003e0 d7 35 03 bd 34 99 a3 3d 46 c3 f7 3c 5f 81 49 bd
       -0.032033768 0.079882056 0.03024448 -0.049195644
0003f0 97 96 79 bd 5f 46 f7 bb b2 11 6b bd e2 0f d8 3d
       -0.06093463 -0.0075462307 -0.057389922 0.105499044

fc2.bias f4 [84]
000000 a0 d8 f5 3d 1b 06 f4 bd 56 51 bb 3d 92 9b 2d bd
       0.120042086 -0.11915227 0.09146373 -0.04238469
000010 7c db b0 bd 32 30 e5 3d 60 a5 15 bd b1 22 a9 bd
       -0.08635613 0.11190833 -0.036534667 -0.0825857
000020 aa 9a 43 3d 81 e0 88 bd aa 25 05 bd 0c 7e 66 bd
       0.04775492 -0.06683446 -0.032506622 -0.05627255
000030 70 11 e9 bd 5d db 55 bd 23 0c 1f 3b 39 4b e7 3c
       -0.11380279 -0.052211154 0.0024268709 0.028234111
000040 52 85 2f 3d 18 32 89 bc 47 84 10 3e be 6a 86 3c
       0.042851754 -0.01674752 0.1411296 0.01640832
000050 66 a5 28 bd 94 fd e7 bc 40 42 f8 3b 14 0d 66 bd
       -0.04117336 -0.028319158 0.007576257 -0.056164816
000060 e2 05 6d bd c0 dd ac 3d 89 4c b2 bd ed 6b 57 be
       -0.05786694 0.08440733 -0.08706004 -0.21037264
000070 e4 4a 1e 3e c2 5d b6 3d 1d 8a 93 3c 24 fa 9f bd
       0.15458256 0.08904602 0.018010193 -0.078113824
000080 09 5e 1d bd 40 0f b6 bb 9d 28 8f bd 94 9c 5c bd
       -0.038419757 -0.005556017 -0.06990168 -0.053860262
000090 41 64 a9 3d 26 d2 03 bd 05 38 5d 3d ba 3c b1 bc
       0.08271075 -0.032182835 0.054008503 -0.021635402
0000a0 54 9a 9b bd 28 d3 fc 3d 3d ea 80 bd 43 eb 0e bd
       -0.07597795 0.12344962 -0.062946774 -0.03489233
0000b0 80 25 87 bc 3f b8 ab bd a0 38 03 3c a8 61 c0 3d
       -0.016497374 -0.083847515 0.008009106 0.093936265
0000c0 2c 92 38 be 37 44 ae 3d 0a 0e d0 bc 60 40 cd 3b
       -0.1802451 0.08509105 -0.02539732 0.0062637776
0000d0 0a 65 3c bc d9 f5 29 3e da 7c 92 3d cc 90 18 bd
       -0.011498699 0.1659769 0.0715272 -0.037247464
0000e0 ac b6 a2 bd 09 16 08 3e c3 1f fd 3d b3 7a b5 bd
       -0.07944998 0.13289656 0.12359574 -0.08861294
0000f0 bd 37 14 3a b2 ef d0 3d ec 42 5f bd 11 19 97 bd
       0.00056540576 0.10201968 -0.05450718 -0.07377828
000100 1a f3 e1 bc a6 0f cb 3c 18 c4 d7 3d 56 d3 5d 3e
       -0.02758174 0.024787735 0.10535449 0.2166265
000110 eb b9 61 3d 1c 8f c7 3c f3 aa dd bd 7e 9b b1 3d
       0.055108946 0.024360232 -0.108236216 0.08672236
000120 56 7d b1 bd dd 76 49 3e 97 5f 6b 3d b4 7e d8 3c
       -0.08666484 0.19674249 0.05746421 0.026427604
000130 0d 8a 02 3e 41 4a ed 3c 48 09 c7 3d d6 cd 01 3e
       0.12747975 0.028966071 0.09718567 0.12676176
000140 7f 3e 7f 3d 3f 57 92 3c 88 9a 27 bc f8 da 21 3d
       0.06231546 0.017863868 -0.010229714 0.039515465

fc3.weight f4 [10, 84]
000000 5c 22 b4 bd 1a e9 87 bd e0 e4 00 be fe bf 3d 3e
       -0.08795616 -0.066362575 -0.12587309 0.1853027
000010 a4 db 31 be db 00 13 3e 7a 83 af 3d fb 93 0c be
       -0.17368942 0.14355795 0.08569999 -0.13728325
000020 30 2a 99 bd b4 53 d4 bd 3e 45 51 bd d3 aa 8a 3d
       -0.0747875 -0.103675276 -0.051091425 0.067708634
000030 d3 08 a3 bc 9d bf 87 3d 49 37 1c 3e 97 99 24 bd
       -0.019901669 0.06628344 0.15255465 -0.040185537
000040 4e e4 26 3d 4b 8f 0f be 4b 78 d6 bc 49 41 df bd
       0.040745072 -0.14019506 -0.026180407 -0.10901124
000050 ee ce 1e be de e8 96 bd 25 0c 62 3d 8d c5 98 bd
       -0.15508625 -0.07368635 0.055187363 -0.07459555
000060 68 b7 19 3d 49 b7 e0 bd ff e3 74 bd a2 71 1f be
       0.037528425 -0.10972459 -0.059787747 -0.15570691
000070 c4 e5 6f bc a1 0a 70 3e 21 88 ce bd a7 d8 c8 3d
       -0.014642183 0.23441555 -0.10084558 0.09806948
000080 32 29 db bd a0 16 9b bc 47 f0 01 bc 42 83 0f 3d
       -0.10701217 -0.018931687 -0.007930822 0.035037287
000090 d7 00 55 3e 7a 2c 0f 3e 14 e1 99 3d d3 7f 12 3d
       0.20801102 0.1398181 0.07513633 0.035766434
0000a0 81 82 eb 3c 68 c8 31 3c 98 c1 f4 bd a0 bd ac bd
       0.028748753 0.010851003 -0.119509876 -0.084346056
0000b0 59 0b b3 bd 8c 23 05 3e f2 1b e8 3d fc 6e dd 3d
       -0.08742399 0.13001841 0.11333455 0.10812184
0000c0 9c 7e c2 bd fa a7 b1 bd 37 1b c1 bd 1e ff 63 3d
       -0.09496805 -0.08674617 -0.09429019 0.05566322
0000d0 93 e2 df bd 32 42 54 3d db 46 57 3d 8c d9 39 3d
       -0.109318875 0.05182094 0.052557807 0.045373484
0000e0 3e a6 8b 3b 9e 13 cb 3d 3c b9 e4 bd bd 79 d5 3d
       0.004261761 0.09915851 -0.11168143 0.1042361
0000f0 1a eb 1f 3e 91 3f 47 3c 76 bc 0e bd 24 7d d1 3d
       0.15617028 0.0121611515 -0.0348477 0.10228947
000100 98 7c 99 3d ee e5 dc bd f9 64 ae bd c1 2d 43 3e
       0.074944675 -0.10786043 -0.08515353 0.19060422
000110 56 38 0b 3d 6d 1d 8d bd ce f4 b6 3d d8 60 a7 3d
       0.033989273 -0.06890378 0.089334115 0.08172768
000120 a2 e1 42 3d cb 0f ca 3d 5a 6c 8a bd 9b 3f 6d 3d
       0.04757846 0.098662935 -0.06758948 0.057921987
000130 7e a9 ee 3d 70 fb da 3c fb 5b 27 3e 6f f3 f1 bd
       0.11653422 0.026731223 0.16343682 -0.118140094
000140 39 81 e2 b9 3b 77 31 bd d9 3b 86 3d 1f 57 03 3e
       -0.00043202357 -0.043326598 0.06554384 0.12826203
000150 6b 1e 56 3d 76 c0 6a 3e 25 bb 2d be 71 7e 04 be
       0.052275103 0.2292498 -0.16965921 -0.12938859
000160 2a 77 be bd ca d9 ba bd 71 4d aa bd c0 58 bc 3d
       -0.093000725 -0.09123571 -0.08315552 0.09196615
000170 ea 86 38 be e7 0a bd 3d e1 57 cf bd b9 9e 85 3d
       -0.18020216 0.09230595 -0.101241834 0.065244146
000180 45 67 31 be 4b 34 a6 bd 68 a1 05 be 24 ed d3 3d
       -0.1732455 -0.08115443 -0.13049853 0.10347965
000190 8e 54 63 3c 94 c1 47 3e 78 63 40 3e dd 88 c6 bd
       0.01387514 0.19507438 0.18787944 -0.09694073
0001a0 b1 ca 28 be 9b 9c f8 3b 1e 35 a7 3d 10 b9 9d 3d
       -0.1648357 0.007587028 0.08164428 0.077013135
0001b0 05 ad a7 3d 91 a7 56 be 52 07 91 bd 5d a8 e7 3d
       0.08187298 -0.20962359 -0.07081474 0.113114096
0001c0 e0 19 a8 bc 02 88 d4 bc 1b 92 27 bd c5 0f 4c 3d
       -0.02052015 -0.02594376 -0.04091082 0.049819726
0001d0 1a b0 aa bd 1c 4a 94 3c 87 60 af 3c d9 9d cc bd
       -0.0833437 0.018101744 0.021408333 -0.099910446
0001e0 87 bb 59 3e d4 7a 20 be f2 5d 24 be a4 83 ad 3d
       0.21262942 -0.15671855 -0.16051462 0.08472374
0001f0 1d 4a d7 3d 9f cd 26 be e5 f3 2f 3e e5 e8 ce bd
       0.10512183 -0.16289376 0.17182882 -0.10103015
000200 67 bc 04 be 34 5d 9a ba 5d 43 0b bd 55 57 14 3c
       -0.12962495 -0.0011777044 -0.03399979 0.009054025
000210 b7 15 db 3c dd 5e 78 3c a1 29 de bd 2d d3 d7 bd
       0.026743753 0.015159336 -0.10847784 -0.105383255
000220 0b 3b 65 3e f7 97 b0 bd d8 71 93 3d 08 ff 46 3e
       0.22385804 -0.08622735 0.07199448 0.19433224
000230 20 e9 c8 bd 84 43 81 be 54 93 7a be 21 fb b7 3d
       -0.0981009 -0.25246823 -0.24470264 0.08983446
000240 ff 49 2f bc 85 73 19 be fd dc 37 3e 6b c9 fe 3d
       -0.010698794 -0.14985473 0.17955394 0.12440761
000250 62 78 ae 3c 25 ec 29 be 42 53 4d bd eb 0b 72 bd
       0.021297637 -0.16593988 -0.05012823 -0.059093397
000260 b4 14 3d 3e b3 33 bc bc 87 98 07 3e 91 94 3f be
       0.18464929 -0.02297387 0.13241778 -0.18709017
000270 09 e1 f0 3d 4f 3c 30 be 7b 9a 9a 3d c3 79 9a bb
       0.11761672 -0.17210506 0.07548996 -0.004714222
000280 49 7a b1 3c b1 de 9f 3d a7 84 17 3d 00 46 70 bd
       0.021664755 0.07806147 0.03699174 -0.058660507
000290 07 4b c5 bc c1 1c e7 bd c2 2c ef bc af 19 94 bd
       -0.024083627 -0.11284781 -0.029196147 -0.07231461
0002a0 60 14 8c 3d e0 a2 a1 3d ab 56 b4 3d 00 24 a4 3d
       0.06839824 0.07892394 0.08805593 0.08014679
0002b0 cb f9 ca bd 6f ad ed bc b9 d0 82 bc 5c 58 96 bd
       -0.099109255 -0.029013364 -0.015968667 -0.07341072
0002c0 91 d0 8b bd ca eb a1 3d 0f 0d c6 3d 5d 4c c9 3d
       -0.0682689 0.07906301 0.096704595 0.09829018
0002d0 64 60 80 bd 6e ec 9a 3c a8 76 e8 bd 91 f0 af bd
       -0.06268385 0.018911567 -0.11350757 -0.08590806
0002e0 0e 1e 64 bd eb 72 2f be cf d0 45 3d fb 57 94 bd
       -0.055692725 -0.17133681 0.04829484 -0.072433434
0002f0 60 47 58 bc 7a 82 1e bd 2e f8 44 3d c9 ee a9 3d
       -0.013200611 -0.03869865 0.048088245 0.08297498
000300 7b b3 87 3d 52 d8 83 bd df ac 0a 3e a2 7b 21 be
       0.0662603 -0.06437744 0.13542508 -0.15769818
000310 ab 5f b1 3d 05 22 d7 3d a1 bb 0e bd 85 8d c2 bd
       0.08660825 0.105045356 -0.034846906 -0.09499649
000320 bf b9 b4 bd 67 1c 84 3d da 26 86 bd 63 18 0f 3d
       -0.08824491 0.0645073 -0.06550379 0.034935366
000330 45 dd ed 3d c7 2a b3 3c ec 6d 8a 3d 88 f4 30 3b
       0.116144694 0.021870984 0.06759247 0.002700122
000340 73 55 e8 3b 4d 9f 49 3d 0e 3f 0d be c0 22 28 be
       0.0070902645 0.049224187 -0.13793585 -0.16419506
000350 c8 0e a4 3c 07 db e7 bb 72 9a fb bb 35 08 34 3e
       0.02002658 -0.0070756706 -0.0076783234 0.17581256
000360 67 c2 32 bd 46 e2 19 bc ca c6 2e 3d 56 3f c4 bd
       -0.043642428 -0.009392327 0.04267005 -0.09582393
000370 34 eb 37 bd 8b 37 72 bd 87 1b 50 bd 0a 03 9d 3d
       -0.04490204 -0.059135 -0.050807502 0.07666595
000380 35 be b6 3d 7a de 66 3e 0f 44 1f 3e 4f 43 f6 3d
       0.08922998 0.22545806 0.15553306 0.12024557
000390 b3 3c 51 bc dd 23 04 3d b4 89 34 3d a2 bc 97 bd
       -0.0127708195 0.032260764 0.044076636 -0.07409026
0003a0 01 8d 2a bd 18 f5 7e 3e 6c d5 3f 3c 0a b4 a4 bc
       -0.041638378 0.24898183 0.011708599 -0.02010538
0003b0 b4 b6 b6 3c 78 b5 c9 bd b1 05 b1 bd 5b 04 d2 3d
       0.022303917 -0.098490655 -0.08643664 0.10254737
0003c0 d2 b7 9c 3d d3 50 c0 3d 23 3c 9a bd e3 00 d9 bd
       0.076522484 0.09390416 -0.075310014 -0.10595872
0003d0 83 0c b7 bc b1 40 a1 3d 25 c3 2e bd 7b b9 30 3e
       -0.022344833 0.07873667 -0.042666573 0.17258255
0003e0 92 41 45 3d 45 3b 14 be f4 8c e9 bd d1 6a 19 bd
       0.048158236 -0.14475735 -0.11403838 -0.037455384
0003f0 62 d6 14 bd a3 d2 a3 bd 8d 71 14 3e ab 5c 9c bd
       -0.036337264 -0.0799916 0.14496441 -0.076348625

fc3.bias f4 [10]
000000 ec 80 82 3e cc 41 30 be 46 4d 2d 3e db 94 ef 38
       0.25488985 -0.172126 0.16924009 0.000114241346
000010 ab 41 ce 3d 2f 06 1d be 96 4b 5c bd c8 0f 8a be
       0.10071119 -0.1533439 -0.053783022 -0.26965165
000020 54 21 a2 3e 0a 74 4c be
       0.31666052 -0.1996614
