Pytorch/going_modular/going_modular/models/going_modular_script_mode_tinyvgg_model.pth (torch, 36679 bytes, 10 tensors)

conv_block_1.0.weight f4 [10, 3, 3, 3]
000000 1a e5 27 be 7b 11 a7 3c 40 42 2f bd 84 a1 60 bd
       -0.16395989 0.020394078 -0.04278779 -0.054841533
000010 b1 9f be 3c 29 25 0c 3e 3b 68 3b be 83 9d 6a 3d
       0.023269506 0.1368605 -0.1830148 0.05727912
000020 76 df 99 3d 99 bd 54 bd 50 f8 52 bc f0 e6 98 bd
       0.07513325 -0.051938627 -0.012876585 -0.07465923
000030 11 fd 3c be 7e 98 42 3e 7a 84 30 bd a4 70 89 3d
       -0.18455912 0.19003484 -0.04309509 0.067109376
000040 cd 8c 29 3e 7e b3 0d be 11 e6 05 bd 2d d4 90 bd
       0.16557617 -0.13838002 -0.03269011 -0.07071719
000050 9e 6e 61 3d f9 e8 1f be d5 12 b7 3b 24 2a b6 bd
       0.055037133 -0.15616216 0.0055869617 -0.088947564
000060 c1 4e 1c 3e b6 ab 30 be f1 27 41 bd c4 86 40 3e
       0.15264417 -0.17253003 -0.04715723 0.18801409
000070 b8 ee 07 be 5e df 04 3e 9e d5 14 3e 71 20 d1 bd
       -0.13274658 0.12975833 0.14534613 -0.10211266
000080 f2 5d c1 3d cb cc e9 3d eb 4d 03 be 7d db 9f 3d
       0.09441747 0.11416014 -0.12822692 0.07805536
000090 d2 a8 e5 bc e8 a1 fd bd 32 c1 9a 3c 9e b9 00 3e
       -0.028034601 -0.12384397 0.01889095 0.12570807
0000a0 16 f3 e0 bd 60 29 5d 3d 98 85 ec bb 5b 87 02 3e
       -0.10983865 0.053994536 -0.007218074 0.12746947
0000b0 b3 32 b3 3d 8e 5a 8d 3d 53 13 35 3e 19 e1 09 3e
       0.087499045 0.069020376 0.17683153 0.13464774
0000c0 82 a1 74 bd 5b ca 26 be c9 03 15 be 0f b3 70 bd
       -0.05972434 -0.1628813 -0.14552225 -0.058764514
0000d0 12 5c b0 bc 72 7a 4f 3d ab 15 bc bd 75 50 4d bd
       -0.021528278 0.050653882 -0.0918382 -0.050125558
0000e0 0a 7a 10 bd d1 05 eb 3c 59 ea 2e 3e ae c7 92 bc
       -0.035272636 0.028689297 0.17081584 -0.01791748
0000f0 79 13 55 3d 7d bf 33 3b 1d 7b 35 3d 2b 92 19 3e
       0.052020524 0.0027427368 0.044306863 0.14997165
000100 bf c5 bf 3b 48 3e 1c 3e 5f 25 ac bb d6 6f a3 3d
       0.0058524306 0.15258133 -0.0052534784 0.079803154
000110 15 c7 76 bc 0d fe f3 bb 39 04 d5 3d 9d a5 25 3e
       -0.015062113 -0.0074460567 0.10401196 0.16176458
000120 6f 66 9b 3c ab e4 12 be 3d 25 54 bd ca 0c a1 3d
       0.018969743 -0.14345042 -0.051793326 0.078637674
000130 6a 86 9f 3d d0 4d 78 3d d2 3a 9a bd aa c4 68 3c
       0.07789309 0.060621083 -0.0753075 0.014207045
000140 3c 0f 2f 3e da 6f 83 bc f7 19 ed 3d ea 93 35 be
       0.17095655 -0.016044546 0.11577218 -0.17732206
000150 62 dc b8 3b 05 8e f1 3d f2 88 b1 bd ad 07 ca 3d
       0.005641506 0.11794666 -0.08668698 0.09864745
000160 85 5b 21 3e 65 e8 98 3d 99 19 48 3d 61 c5 20 3d
       0.15757568 0.07466201 0.048852537 0.039250735
000170 36 aa 8e 3c 2b ab 13 3d 45 be 49 3b 82 21 a7 bd
       0.017415147 0.03605191 0.0030783575 -0.08160688
000180 7d 43 d3 3d 72 e8 1f 3d 71 7d 99 3d b3 65 32 3e
       0.10315607 0.039040036 0.07494629 0.17421608
000190 d8 51 0b be 1a b6 1d 3e 68 2c ed 3c 8e 44 29 3e
       -0.1360544 0.15401497 0.028951839 0.16530058
0001a0 62 c0 42 3e 26 16 9b bd 5e fd 48 bd 5d 50 04 be
       0.190187 -0.07572584 -0.049069755 -0.12921281
0001b0 b6 80 b3 bc e3 41 8d 3d d8 c0 07 be af 59 08 bd
       -0.02191196 0.068973325 -0.13257158 -0.033288654
0001c0 9e 55 17 bd aa ab da bd 7f 9d 92 bd 74 1e b6 3c
       -0.036946885 -0.106772736 -0.07158946 0.022231318
0001d0 a2 b8 46 3d 83 ff 0c be 1e 0e e7 bc 48 85 3e be
       0.048515923 -0.13769345 -0.028204974 -0.1860553
0001e0 8a 76 2a be 2e df 41 3e 17 24 28 be 21 0a 34 be
       -0.16646782 0.18932793 -0.16420017 -0.17581989
0001f0 15 9c 94 3d 0a 99 97 bc 83 de 14 be 24 c7 13 be
       0.07256333 -0.018505592 -0.14538006 -0.14431435
000200 fc 01 14 3e 9d f5 06 3e c5 8b 15 3e 0d d1 bb 3d
       0.14453882 0.13179632 0.14604099 0.09170733
000210 5f 1b 89 3b 04 28 05 be e0 b6 7a bd 3e bb 28 3e
       0.004184171 -0.13003546 -0.06120956 0.16477677
000220 e5 b5 a0 3d 08 fc 27 3e 77 ff 1f bd ae 90 fd 3d
       0.07847194 0.16404736 -0.03906199 0.12381111
000230 d1 e4 5c 3c 6d 6a 2f 3e 1a bf eb 3d 48 6d 0f 3e
       0.013482288 0.17130442 0.11511059 0.14006531
000240 a4 68 2b be d3 9c 0e bd e2 1a 2d be 61 67 ac bd
       -0.16739136 -0.034817528 -0.16904786 -0.084181555
000250 93 e0 d8 3d ff 31 e5 3d 7f 48 d7 bd fa 7b bc 3c
       0.10589709 0.111911766 -0.105118744 0.023008335
000260 b6 67 d9 3d 4e 53 ab bd ea 2c 3e 3d 8a 5d 2a be
       0.106154844 -0.083654985 0.046429552 -0.16637245
000270 3d ee 37 bd c4 df c0 bd 52 14 0a be ba 85 d0 3d
       -0.044904936 -0.0941768 -0.13484314 0.10181756
000280 53 5c 18 be 97 a8 2b 3d 95 10 e4 3d 21 cb 0a be
       -0.14878969 0.041908827 0.11135975 -0.1355405
000290 0d 74 e2 bc a5 38 b3 bc 43 6d 20 3e d9 69 fa bd
       -0.027643228 -0.021877596 0.1566668 -0.1222722
0002a0 49 14 05 bd 0a 2f 07 bd a5 2d 1e 3e 97 ed 2b be
       -0.03249005 -0.033003844 0.154471 -0.16789852
0002b0 3c dd 32 be 8a 61 2c be 53 7f c1 3d 3e 57 a7 3d
       -0.17467207 -0.16834083 0.09448113 0.08170937
0002c0 c1 ef 59 bd 40 05 3d 3e 68 7a d3 3c 45 ec 3d 3e
       -0.053207163 0.18459034 0.025815204 0.18547161
0002d0 a8 6f 1c 3d 91 36 be 3d 79 7e 91 bd a5 b5 d9 3d
       0.03819242 0.092877515 -0.07104201 0.10630349
0002e0 d4 9f 13 be a9 60 2b 3d b2 ad b4 bd 42 7c de 3d
       -0.14416438 0.04184023 -0.08822192 0.10863544
0002f0 6a 5e a5 bb a4 83 12 be f1 d5 f1 3d 87 82 35 3d
       -0.0050466554 -0.1430803 0.11808384 0.044313934
000300 9f 59 3e be 74 49 d6 3d ea a9 b2 bc 52 ed 94 3d
       -0.18588875 0.10463229 -0.021809537 0.07271828
000310 3a cf bb 3c 9c d3 72 3d 62 76 c4 bc 35 24 d8 bd
       0.022925962 0.059283838 -0.02398223 -0.10553781
000320 e6 38 2f bd b4 a8 1f be 6c f4 15 3e d0 f4 a9 bb
       -0.042778872 -0.15591699 0.14644021 -0.0051866546
000330 a0 d3 a2 3d 57 35 e1 bd ba 06 0b 3e 12 41 e3 3d
       0.079505205 -0.10996502 0.13576785 0.110963956
000340 01 bb 77 3c 8e c2 bc bd 9d e7 03 3e fd 26 fd 3c
       0.015120269 -0.09216796 0.12881322 0.03090238
000350 eb a1 2f 3d 6a db 33 3d c5 47 02 3d 1b 78 2f be
       0.042879026 0.04391042 0.031806726 -0.1713566
000360 f3 87 ed bd 77 f3 72 3d 4b 9b 52 bd eb 4c 10 3e
       -0.11598196 0.059314217 -0.05141763 0.14091842
000370 ef 19 0c 3e a1 28 2e 3d cc af f7 bd 62 57 f8 bd
       0.13681768 0.042519215 -0.120940775 -0.12126042
000380 93 e6 c2 3c 4b d5 9b bb 81 38 b9 3c 38 a2 1e be
       0.023791587 -0.004755651 0.022609951 -0.15491569
000390 fe 2c 4a 3d 75 8d 26 3e 29 15 43 3e 38 8d bf bb
       0.049359314 0.16264899 0.1905104 -0.005845692
0003a0 ce 0e e9 3c 40 35 ae bd 47 2c 06 be 83 16 ff 3d
       0.028449442 -0.085062504 -0.13102828 0.12455466
0003b0 ed 0a 3d bd 0b d2 af 3c 0f 2c a3 bc 86 85 af 3c
       -0.046152998 0.021462461 -0.01991847 0.021425974
0003c0 c7 58 f2 3d f1 99 07 be 08 64 ff 3d 6f dd d2 bd
       0.11833339 -0.13242318 0.12470251 -0.10296141
0003d0 a0 3b 38 bd a6 b2 28 be 24 23 22 be 3f 53 8b bd
       -0.044978738 -0.16474399 -0.15833718 -0.06802987
0003e0 48 02 2e bd c4 2d 4a bd 52 c3 a9 bd f7 ae c7 bd
       -0.042482644 -0.04936005 -0.082892075 -0.09750169
0003f0 c0 7c 5e 3c 90 f4 ad bc 78 79 9a 3c 88 ad 3b be
       0.013579547 -0.02123478 0.018856749 -0.18327916

conv_block_1.0.bias f4 [10]
000000 93 1d a0 bc 5d 94 d3 bd 4e 45 29 bd 7d 9d 45 be
       -0.019545352 -0.103310324 -0.04132586 -0.19298358
000010 c5 fb 3b 3e be 8a dd 3d 45 30 f7 bd b6 5d 40 be
       0.18357761 0.108174786 -0.120697536 -0.18785748
000020 0f ff c0 3d 2e 54 fb bd
       0.094236486 -0.122719154

conv_block_1.2.weight f4 [10, 10, 3, 3]
000000 e4 a8 c2 3c fe 36 c4 3d 25 a2 bb 3d 71 42 88 bd
       0.023762174 0.095808014 0.09161786 -0.06653298
000010 c9 55 3a 3d 0b b0 0c 3d 5e 51 5a 3c 65 27 fe 3c
       0.045491967 0.034347575 0.0133250635 0.031024644
000020 d8 54 d6 bd fa f9 1a bd 0e e5 9b bd 42 f3 de bc
       -0.104654014 -0.037836052 -0.07612048 -0.027215604
000030 54 67 2f bc 6d a1 b0 3d 57 04 79 3c 9d 01 9f 3c
       -0.010705788 0.086245395 0.015198789 0.019409949
000040 e8 0e 7b bd 4e d4 af 3c 42 e6 bb bd 84 5e c2 3d
       -0.061293513 0.02146354 -0.091747776 0.09490684
000050 bf 0b be 3d f7 4f 88 bd f6 46 8a 3d 0b 71 2a 3d
       0.09279584 -0.06655877 0.06751816 0.041611712
000060 d6 7f b3 bd a4 b5 d0 3c f7 73 5c 3d 72 a0 98 bd
       -0.08764617 0.025477238 0.05382153 -0.074524775
000070 81 b0 61 3d 0b 51 1c bd 7e 22 ce 3c f2 77 85 bd
       0.055099968 -0.038163226 0.025162932 -0.065170184
000080 b0 44 96 3d 8e 95 95 bb c9 c2 02 bd 25 70 c0 3d
       0.0733732 -0.0045649474 -0.031924043 0.0939639
000090 48 0b 83 bb 7b 48 d7 bd 0c 48 be bd 01 c6 a7 3c
       -0.0039991476 -0.105118714 -0.092910856 0.020480158
0000a0 36 3f 05 3d 34 4e 87 bc c2 2b 95 bd 48 a1 93 3d
       0.032530986 -0.016516782 -0.07283737 0.07208496
0000b0 7e 94 2a 3d 61 d6 3e bd d7 76 b9 3d ff 17 6d bd
       0.04164552 -0.046591166 0.0905587 -0.057884213
0000c0 d5 14 23 bd ee 6c 5f 3d 55 67 18 3d 21 41 96 3c
       -0.03981479 0.054547243 0.03720792 0.018341603
0000d0 7b 11 08 3d 37 dc d9 3b 0b 9e b6 bc b3 ba 9f 3d
       0.033219796 0.006648566 -0.022292158 0.07799282
0000e0 5a 1e 81 bd 12 9c 62 3d 3e 23 a4 bd f9 00 37 bd
       -0.06304617 0.05532462 -0.080145344 -0.044678662
0000f0 91 b1 cd 3c 7c 5b 9a 3d 46 61 91 3d 2b 61 89 bc
       0.025109084 0.075369805 0.070986316 -0.016769966
000100 2e 80 8a 3d c9 81 0d bd a8 e8 f5 3b 29 ca 67 bd
       0.067627296 -0.0345476 0.0075045414 -0.05658928
000110 7f 77 94 bd e5 a9 b0 3d 52 f3 32 3d f7 82 30 3c
       -0.072493546 0.08626155 0.04368908 0.010773412
000120 cb 36 85 3d 43 84 be 3c 88 9f 70 3d 93 c3 29 bd
       0.065045916 0.023256427 0.05874589 -0.04144628
000130 9d ab 31 bd 0b 6e 55 bd 1f 06 09 3b c8 45 b2 bd
       -0.043376554 -0.0521069 0.002090819 -0.08704716
000140 f9 d5 af bb c6 fb af bd 15 bb b8 3d 44 c3 c5 3c
       -0.0053660837 -0.08592944 0.09020058 0.024140961
000150 3b a9 a2 3d 61 b3 b9 3d 4f 4a 3e bd 66 ab aa bd
       0.079424344 0.09067417 -0.046457585 -0.08333473
000160 9a 4b 3b bd bf d3 a0 3d cf ec a9 bd 6c f8 92 3d
       -0.045726396 0.07852887 -0.08297121 0.07176289
000170 cf 3f 60 3c 02 dc 15 bd eb e3 20 bd 33 2f 55 3c
       0.013687088 -0.03658677 -0.03927986 0.013011741
000180 ff 7d cf 3d aa 4a d9 bc 70 37 86 3d c6 f8 8b 3d
       0.10131454 -0.02652486 0.065535426 0.06834559
000190 c4 72 b3 bd d7 84 16 bc 83 3b 67 bd 29 27 ad 3d
       -0.08762124 -0.009186945 -0.05645324 0.08454735
0001a0 9b f3 16 bd 15 6d 6e bd 61 f8 e1 3c eb c4 aa 3d
       -0.036853414 -0.058209497 0.027584257 0.0833834
0001b0 5a d9 9f bd 36 0f ad 3c e8 ce b0 3d 48 cc 6d 3d
       -0.078051284 0.021125417 0.08633214 0.058056146
0001c0 69 55 76 3d cb 32 54 3d 7c 4e 11 3d 30 18 19 bd
       0.060140047 0.051806252 0.03547524 -0.037376583
0001d0 2f 2d bb 3d 1b 0f 8e 3d 77 4e 85 3c 04 60 64 bc
       0.091394775 0.06936475 0.016272767 -0.0139389075
0001e0 48 52 0e bd 66 cc ae 3b bb 71 88 3c af af 0d bb
       -0.03474644 0.005334425 0.016655793 -0.0021619608
0001f0 55 db 83 3a c1 eb c6 3d 38 c9 ff bc 99 01 b7 bc
       0.0010059873 0.09712935 -0.031223878 -0.022339629
000200 4c 17 1e bd c0 b3 28 bb 3c 31 b5 bd 2f 67 9d ba
       -0.038596436 -0.0025741905 -0.08847281 -0.00120089
000210 b1 2d ec 3a 56 ae c0 bd a6 86 d4 bd e3 6c 6c 3d
       0.0018018988 -0.09408252 -0.10377245 0.05772103
000220 48 8a b5 bd 43 02 d6 bd d5 e4 e1 bc 90 80 10 bd
       -0.08864266 -0.1044965 -0.027574936 -0.035278857
000230 62 75 3a bc 06 83 82 bc 66 cc ff bc 88 bd c1 bd
       -0.011380525 -0.015931617 -0.031225394 -0.09459978
000240 dc 32 8e 3d 48 1f 1d 3a ca 9e c8 3d 1c a6 c4 bd
       0.069432944 0.0005993736 0.097959116 -0.09601995
000250 89 7a 86 3d 38 53 25 bb d9 22 d9 bd ca 8f 8c bd
       0.065663405 -0.0025226604 -0.1060235 -0.06863363
000260 a9 e3 5f 3d e3 26 92 bd e8 f4 4f bd 8f 8a 19 3d
       0.054660473 -0.07136323 -0.05077067 0.037485655
000270 03 dc 41 bd 99 0e ba bd ec 5e 27 3d 62 fc 60 bc
       -0.04732896 -0.090848155 0.04086201 -0.013732048
000280 7d 56 56 bd 7b e4 9c bd 65 fc 3e bd 58 85 20 bc
       -0.052328575 -0.07660767 -0.04662742 -0.009797417
000290 ca 21 ad bc 35 78 d8 bd 9c d1 b1 bb 40 1d 19 3d
       -0.021134276 -0.10569803 -0.0054265987 0.03738141
0002a0 5d 43 27 bd c4 aa c0 bd 73 fb 13 bd 39 1e 98 3d
       -0.040835727 -0.09407571 -0.036128473 0.074276395
0002b0 e3 94 5c bd 83 c3 bc 3d 80 68 c1 ba d8 c1 33 3c
       -0.053852927 0.092169784 -0.0014755875 0.010971509
0002c0 06 5b bc bd e2 36 2d 3d 10 88 1c 3c 63 14 a0 3d
       -0.09197049 0.04228867 0.009553924 0.078163885
0002d0 09 d3 55 3d 65 fb c5 3d 7e 3e da bc 7d 0e 6f bd
       0.052203212 0.0966709 -0.026641127 -0.058363426
0002e0 f7 7a c9 3d ba 19 25 3d 8f 8d b6 3d d2 0e ae 3a
       0.09837907 0.040307738 0.08913719 0.0013279563
0002f0 42 9b a8 3d 55 bb 8e bd 44 68 c2 3d ab b4 02 bd
       0.08232738 -0.069693245 0.09492543 -0.03191058
000300 16 b3 b7 bd 00 31 88 bc 6c 83 1d 3d 96 66 83 3c
       -0.08969705 -0.016624928 0.03845541 0.016040128
000310 70 8c 80 bb 99 00 9a 3c db cd 8c 3d e5 f5 c4 3d
       -0.0039229915 0.018799113 0.06875201 0.09617213
000320 5b ce ad 3d ca 0d 8a 3c 57 13 8b bd 9f de 87 3c
       0.08486625 0.016852278 -0.06790798 0.016585646
000330 2a 5a b8 3d 8b ee a1 bd 6e 55 94 3d d6 ec a9 bd
       0.090015724 -0.079068266 0.07242857 -0.08297126
000340 f5 7d 68 3d aa 28 09 3b c9 23 50 bd f1 31 7b 3d
       0.056760747 0.0020928779 -0.050815377 0.061326925
000350 a8 1d 50 3d 29 b2 79 3c 1a e0 81 3d ce af c0 3d
       0.050809532 0.015240231 0.06341572 0.09408532
000360 1f 7d a7 bd 0e 62 5f bd d3 e8 3c bd 98 f4 70 3c
       -0.08178162 -0.05453687 -0.046120476 0.014706753
000370 99 51 a3 bd 1d bb 7f bd 1b 21 b1 bd 79 69 46 3d
       -0.07974548 -0.062434305 -0.086488925 0.04844043
000380 8c 91 87 bd 8b 5e b0 bd c1 39 aa bc ae ab de 3d
       -0.06619558 -0.08611783 -0.020779492 0.10872589
000390 7b 2c 88 3c 83 44 ff bb 6d 51 15 bc 29 c8 7e 3d
       0.016622772 -0.0077901497 -0.009113652 0.062202606
0003a0 e0 8a 0b bd c9 0f cb bc 16 8a 81 bc 9d ff 7a 3d
       -0.03406799 -0.0247878 -0.015812915 0.061278928
0003b0 be 46 e3 bc be f4 64 bd 4e 57 74 bd 21 e1 ce 3d
       -0.027743693 -0.055897467 -0.059653573 0.10101534
0003c0 d4 77 06 bd 7c 38 74 3c b0 96 1f 3c d2 fc 14 39
       -0.03282912 0.014906045 0.009740517 0.00014208563
0003d0 27 59 81 3d 30 80 6e bd 37 c2 09 bd fe fa 0c bc
       0.063158326 -0.058227718 -0.033632483 -0.008604763
0003e0 ca b3 95 bd ae 70 83 bd c4 a5 12 bc 3d 87 c3 3d
       -0.07309683 -0.06417976 -0.008950654 0.09547279
0003f0 a1 90 bd bb 80 13 c9 3d 66 af 92 3d d8 b7 b3 bd
       -0.0057850634 0.098181725 0.07162361 -0.087753

conv_block_1.2.bias f4 [10]
000000 42 be af bd ef bc 03 3c 03 40 bf bd 06 c3 be 3c
       -0.08581211 0.008040651 -0.09338381 0.023286354
000010 e5 fa 9c bd a6 e5 85 bd d4 9b 92 bc 22 bf b6 3d
       -0.07665042 -0.065379426 -0.01789657 0.089231744
000020 a2 20 a2 bd 53 0c 9c bb
       -0.079163805 -0.0047622113

conv_block_2.0.weight f4 [10, 10, 3, 3]
000000 65 82 8e 3d 63 79 c9 bd 34 b4 cf bd 39 9f b1 3d
       0.069584645 -0.09837606 -0.10141793 0.086729474
000010 1e 50 3c 3d 40 66 5a 39 e2 a5 65 3c cc 6a 76 bd
       0.045974843 0.00020828191 0.0140166 -0.060160443
000020 31 7f b3 3d 1f bc 5d 3d aa 68 cc bd 46 50 c9 3d
       0.08764494 0.054134484 -0.099809006 0.09829764
000030 2d 80 a9 bd 01 a1 b1 bd 4f 16 9a 3d 98 b9 18 3d
       -0.08276401 -0.08673287 0.07523786 0.03728637
000040 13 0c 86 3c af bf 32 bd 70 61 00 bd 8a 72 d3 bd
       0.01636318 -0.043639835 -0.031342924 -0.10324581
000050 ef 94 92 bd 2e 60 b4 3d 88 8e 80 bd 8a 91 9a 3d
       -0.07157313 0.08807407 -0.06277186 0.075472906
000060 f6 48 f8 bc 44 fe c0 bc db 9a a3 3d e1 ec 5a bd
       -0.030308228 -0.023558743 0.07988521 -0.05344856
000070 7b c2 f5 3c 04 f1 64 3d f7 82 b4 bc eb 9d ba 3c
       0.029999962 0.055893913 -0.022035105 0.02278038
000080 4d 52 5b bd 79 f4 2a 3c ac 68 a2 3c d3 2c 54 3d
       -0.053545285 0.010434263 0.019825302 0.05180056
000090 b4 7c 42 bd a4 f7 2b 3d d5 35 90 bd 4a b0 80 3d
       -0.047482207 0.041984215 -0.07041518 0.062836245
0000a0 08 6f a6 3d 2a 96 d2 bb 0a 62 57 bc c2 30 ce bd
       0.08126646 -0.0064265924 -0.013145933 -0.100678936
0000b0 9d 1a c8 3d dc cc 18 bc d5 3b d3 3d b7 4a 31 3d
       0.09770701 -0.009326186 0.103141464 0.043284144
0000c0 3f 82 d0 3d 64 b8 76 3d 24 ab e4 3c a2 7a 85 bd
       0.101810925 0.060234442 0.027913637 -0.06517531
0000d0 02 61 c6 bd 58 09 95 bd 95 86 a2 3c c0 73 11 bd
       -0.096864715 -0.07277173 0.019839564 -0.03551078
0000e0 7b 03 f2 3b df 6d bb 3d a4 24 b1 3d 7c a3 84 3d
       0.007385669 0.091518156 0.08649567 0.06476495
0000f0 db 1d b9 3c 9b 3b 5f bd fc 84 ae 3d 86 63 c5 bd
       0.022597244 -0.054500204 0.085214585 -0.09638123
000100 0f 6d ae bd 2f 69 b6 bc 0c d6 ca 3d 95 dc 71 bc
       -0.08516895 -0.022266952 0.099041075 -0.0147620635
000110 93 2c 2f 3d a0 93 16 bd 00 ec 68 bc d1 2c bf 3d
       0.04276712 -0.03676188 -0.014216423 0.0933472
000120 e0 5f 81 bc 62 a2 30 bd 22 a4 37 bd 51 ee c9 bd
       -0.015792787 -0.04312361 -0.044834264 -0.09859908
000130 f7 8e 9d 3c bf e4 45 3d e0 1b dc 3c c1 0c 80 3d
       0.01923321 0.048313852 0.02686876 0.062524326
000140 17 98 ed bc 67 85 6e bd 1c cb 35 bd 82 e7 7d bd
       -0.029003186 -0.05823269 -0.044383153 -0.06198836
000150 7a 92 78 bd ef b5 23 3c 9a a9 42 bd 69 d3 6c 3c
       -0.060686566 0.009992107 -0.047525026 0.014454701
000160 81 57 d6 bd 5a bd 5c bc 94 f4 a8 bd 0e 15 06 3d
       -0.10465909 -0.013472879 -0.082497746 0.032734923
000170 70 74 06 3c 65 51 b2 3d ab 45 d1 3d c0 6d c0 bc
       0.008206472 0.08706931 0.10218366 -0.023489833
000180 c1 40 9c 3d 19 68 91 3d 63 06 c8 bd 9d e9 c6 3d
       0.07629538 0.07099933 -0.09766843 0.09712527
000190 26 6d 03 bd d8 0f 24 bc 38 93 29 bd 53 51 69 bd
       -0.032086514 -0.010013543 -0.041400164 -0.056962322
0001a0 ce 4a bc bd 44 e3 89 bd cc 6e 00 bd 30 5f 4c bc
       -0.09193955 -0.067328006 -0.031355664 -0.012473866
0001b0 d4 54 d4 3c 74 3b e9 3c 99 6e c8 bd 9c a3 fb bc
       0.025919355 0.028470732 -0.0978672 -0.030717663
0001c0 d4 c9 5c bd c0 31 86 ba d0 76 9c 3c e4 07 db 3c
       -0.053903416 -0.0010238215 0.019099623 0.026737161
0001d0 d2 3b 5f 3d 2e e5 3d bd b2 e2 70 bd 73 6a 9f 3d
       0.05450041 -0.04636114 -0.058809943 0.077839755
0001e0 89 54 5a bd 5a 78 16 3d 74 99 b4 3c 72 37 7b 3d
       -0.053303275 0.03673587 0.022045828 0.061332174
0001f0 17 a2 56 bd e0 c7 12 bb 0b aa cd 3d ba bb 62 3d
       -0.052400675 -0.0022396967 0.10042199 0.05535481
000200 9c a4 1b bd 2f 11 80 3d be 7a 70 3d 62 0e 0d 3d
       -0.03799878 0.062532775 0.058710806 0.034437545
000210 c0 89 91 3c 70 33 c5 3b cb 46 b2 3d be 04 59 3d
       0.01776588 0.0060180947 0.08704909 0.052983038
000220 16 8c 16 3d 22 32 52 3d 14 ce 9d bc 90 4d 72 3c
       0.03675469 0.05131734 -0.019263305 0.014789
000230 b0 4f fa bc 53 0d 49 bd 17 fc c6 3d 00 99 94 3a
       -0.030555576 -0.049084973 0.09716051 0.0011337101
000240 6a fc 11 3d 00 dd bd bd 6c b1 07 bd b1 17 85 3d
       0.03564111 -0.09270668 -0.033128187 0.064986594
000250 3d 34 9a 3d 84 09 bf bc cc b9 fd 3c 76 68 33 3d
       0.07529495 -0.023319967 0.030972384 0.043800794
000260 5d 92 d1 3d 30 03 c2 bd 08 12 d2 bc 20 3a 45 bd
       0.10232995 -0.09473264 -0.025643364 -0.048151135
000270 2c 05 90 bd 37 48 3b bd 8a ee 3b bd bf 43 bf bd
       -0.070322365 -0.045723166 -0.045881785 -0.093390934
000280 e0 2c 59 3b 12 db 00 3d b0 01 fd bc 50 fa d4 bb
       0.003313832 0.03145892 -0.030884594 -0.006499566
000290 41 af c7 bd a0 da a7 3b 20 d0 65 bb 00 b8 38 b9
       -0.09750224 0.0051224977 -0.003506668 -0.00017616153
0002a0 f4 f3 b6 3c 80 4d 1d bd 22 64 18 3d 00 6b 93 ba
       0.022333123 -0.038403988 0.03720487 -0.0011247098
0002b0 9b d1 8b 3d 46 98 79 3d b6 2d 9b bd 78 91 06 bd
       0.068270884 0.060936235 -0.07577078 -0.032853574
0002c0 60 23 13 bc 88 5f 9c bd 58 e6 ec bc c5 72 81 3d
       -0.008980602 -0.07635409 -0.02891843 0.06320719
0002d0 60 c6 6d bd c4 e5 82 bc e1 78 cc bd f1 7b f0 bc
       -0.058050513 -0.015978701 -0.09983993 -0.029355975
0002e0 d1 bc 8a 3d a3 3f 79 3c 2c 0f 11 bd f5 79 a9 3c
       0.06774295 0.015212926 -0.03541486 0.020688036
0002f0 d0 6f 4b 3d 60 bc be 3d 9f 2f 76 ba 8f 9e 61 3d
       0.04966718 0.093132734 -0.00093912514 0.055082854
000300 7f ff 8a bd 55 62 7b 3d 7b 50 41 3d 9c 58 06 3d
       -0.06787013 0.061373074 0.047195893 0.03279935
000310 4a 19 c0 3b 6b cc cd 3d 02 a7 92 3c a3 3b c4 3d
       0.0058623897 0.10048755 0.017901901 0.09581687
000320 46 4f 7a bd d6 07 c3 3d 5e 07 10 3d 5d 7f a5 3d
       -0.061110757 0.09522979 0.035163276 0.08080933
000330 d0 5e 85 3d 48 f9 81 bc bf 99 93 bc a1 97 a5 3c
       0.06512225 -0.015865937 -0.018017648 0.020213904
000340 e5 07 86 3c a1 fa d2 bd 0a a9 be bd 16 4e 0c bd
       0.016361186 -0.1030171 -0.093095854 -0.034254156
000350 ee 82 ae bd 82 e2 8c bb 44 97 38 bc 79 61 bf bd
       -0.085210666 -0.004299463 -0.011266533 -0.09344763
000360 5b bd 0e 3d 5b e4 5b 3d fe 0d 71 bd 6d d4 bb bd
       0.034848552 0.053684574 -0.058851235 -0.091713764
000370 97 6a a7 3d 33 2f ac bc b1 8d 21 bc 59 a3 70 bd
       0.08174627 -0.0210186 -0.009860442 -0.05874953
000380 20 a6 cb bd d5 84 dd bc 38 6c 86 3c d5 67 11 3d
       -0.09943795 -0.027040878 0.016409025 0.035499413
000390 64 ce 96 3d 6d b0 0f bd 6a 06 5a 3d 19 d7 dd bb
       0.07363585 -0.035080362 0.053228773 -0.0067700264
0003a0 f7 7a a1 bd 66 d3 04 bd 75 e3 d2 bd 9d 10 8c bd
       -0.07884782 -0.032428168 -0.1029729 -0.06839106
0003b0 7f 77 2f bd f6 dc c9 bd d5 11 56 3d c4 3c 20 3d
       -0.04283857 -0.09856598 0.0522631 0.03912045
0003c0 69 f8 8c bc f2 4e 89 3d 34 d8 d5 3d e8 5b b0 bd
       -0.017208295 0.06704511 0.10441628 -0.0861128
0003d0 49 4b 10 bd cd 14 42 bd 75 69 c6 39 4f 4e 55 3d
       -0.035228048 -0.04738312 0.00037844075 0.052076634
0003e0 98 38 af 3d bc 54 8a bc a5 09 94 3d 39 c4 31 3c
       0.08555716 -0.016886108 0.07228402 0.010850006
0003f0 b2 43 a0 bd 9f 33 cd 3d 92 16 9e 3c de d3 9d bc
       -0.07825412 0.100196116 0.019297872 -0.019266065

conv_block_2.0.bias f4 [10]
000000 c0 ee ba 3c 76 1d 6f bd c4 4f 5f bd 1f 19 4b bb
       0.022818923 -0.058377706 -0.05451943 -0.0030990315
000010 0b 61 03 bd fb 95 04 3c ef 9e 4a bd 05 16 06 bd
       -0.03207497 0.008092399 -0.049467977 -0.032735843
000020 77 58 6a bd eb 08 2c 3b
       -0.057213273 0.0026250433

conv_block_2.2.weight f4 [10, 10, 3, 3]
000000 a7 fc bd 3c 01 52 45 bc c4 fc a5 3d 0e b5 1c bc
       0.023191763 -0.012043477 0.08104852 -0.009564651
000010 71 a4 b2 bd 40 c1 c3 3d bf 73 2f bc d0 03 07 bc
       -0.08722771 0.09558344 -0.010708748 -0.008240655
000020 ce 43 44 3d 30 58 e1 3b ac 96 e1 bc 3b 35 b5 bd
       0.047916226 0.006876968 -0.027537666 -0.088480435
000030 c0 12 dc ba 85 78 ad bd 8b 99 af bd 88 43 b1 bc
       -0.0016790256 -0.08470253 -0.08574208 -0.021638647
000040 e6 0c 34 bd 48 9a d4 bc 2e ca 86 3d 41 17 4c bd
       -0.043957613 -0.025952473 0.065815315 -0.049826864
000050 bc d8 c4 bb 9b 44 96 3d cc 6d c5 3d 24 85 ba bc
       -0.006007282 0.07337304 0.09640083 -0.022768565
000060 5b 3b d7 3c 03 e3 2b 3c 2d 2c 69 bd 42 87 4d bd
       0.02627342 0.0104911355 -0.056926895 -0.05017782
000070 bd fb 2d bc f0 d5 cb 3d 34 17 68 bd 2c 36 ad 3b
       -0.010619101 0.09952915 -0.056662753 0.005285999
000080 66 f8 cf bd d0 d6 cb 3d 2d c3 74 bd 89 75 30 3d
       -0.101548 0.099530816 -0.059756447 0.04308084
000090 31 7f 02 bd 2a 1b a8 bc fc 4d 01 3d 5c 81 b1 bc
       -0.03185958 -0.020520765 0.031568512 -0.021668129
0000a0 27 fa 2e bb 5e 13 1c 3d d5 42 a7 bc f0 50 2b bd
       -0.0026699395 0.038104407 -0.02041761 -0.041825235
0000b0 29 cd 0f bc 0c 13 9d 3d f4 21 13 3a 77 25 79 bd
       -0.008776941 0.076696485 0.00056126644 -0.060826745
0000c0 54 9b 3c bb b9 ef 0d bd b4 60 4f 3d 95 9e 92 3d
       -0.0028779106 -0.034652445 0.050629333 0.07159153
0000d0 24 5c bf 3c f6 05 3a bd 27 9d b2 3d 4d 26 d3 3d
       0.023359366 -0.04541584 0.08721381 0.1031004
0000e0 ed 08 d9 3d b7 32 38 3d d3 90 30 bd c3 9d 47 bd
       0.105974056 0.04497024 -0.043106865 -0.048734438
0000f0 26 99 da bc 96 62 76 3d fd eb f5 3b c1 18 bb bd
       -0.026684355 0.060152613 0.0075049386 -0.09135581
000100 66 a4 8e bc 37 6f a5 3b b7 35 53 bd 9b 59 b4 b8
       -0.017412376 0.0050486582 -0.0515649 -8.599759e-05
000110 a5 4f d6 bd 21 41 0d bc f4 22 81 bc 4d 3c 6c 3d
       -0.1046441 -0.008621485 -0.015763737 0.057674695
000120 6c ef d5 bd 4f ca 83 3d 97 c4 d0 bd 85 3f 53 bd
       -0.10446057 0.06435072 -0.101937465 -0.05157425
000130 b1 06 c6 3d ab 41 35 bd 7d 11 b7 bd 0c 12 d7 bc
       0.09669245 -0.04425208 -0.089388825 -0.026253723
000140 28 e8 32 3c 65 e9 32 bd b9 97 67 bd 21 52 7f bd
       0.010919608 -0.043679614 -0.05654118 -0.062334184
000150 0a 60 d5 bd 90 f4 fe 3c 7b 95 a3 3c cb df c0 bd
       -0.104187086 0.031122476 0.019968739 -0.09417685
000160 9f 05 24 3d 28 2d ab 3d 8f 79 f8 3b 74 b0 d5 3d
       0.040044423 0.08358222 0.0075828503 0.104340464
000170 f4 c8 d8 3c 55 4f 2b ba 90 a4 d1 bd d3 06 ae bb
       0.02646301 -0.0006534954 -0.10236466 -0.005310872
000180 16 53 c2 3d eb c7 43 3d fe fc 2e 3c a7 21 b1 3d
       0.09488504 0.04779808 0.010680435 0.08648997
000190 5e 0a 14 3d 80 0b c0 3b 34 af a0 bd 7e 1a 60 3d
       0.0361427 0.005860746 -0.07845917 0.054712765
0001a0 a8 8e 9e 3c ef 9d c8 3d c4 a0 c9 3c 4e 59 30 3d
       0.019355133 0.097957484 0.024612792 0.043053918
0001b0 7e e4 45 3d ff 84 cd bd c9 0f 2e bd 5a fb 85 bd
       0.04831361 -0.100351326 -0.042495523 -0.06542082
0001c0 c0 95 64 bc 38 d6 30 bc 60 a4 b6 3b f0 00 c8 bd
       -0.013951719 -0.010793261 0.0055737942 -0.09765804
0001d0 a6 cd 17 3d 54 7c d4 bd 11 ab ac 3d 1b 5c d7 3d
       0.037061356 -0.10375276 0.08431066 0.105156146
0001e0 1e b7 86 bc d9 14 41 bd 85 58 51 3c 7c d6 88 3d
       -0.016444739 -0.047139022 0.012777452 0.06681535
0001f0 82 d5 a3 bd 40 bd 02 bc f0 d2 95 bb f1 08 11 3d
       -0.07999708 -0.007979691 -0.004572265 0.035408918
000200 b4 e9 de bd 67 40 ff bc 9d e9 c6 3d 3c c2 0b bd
       -0.10884419 -0.03115864 0.09712527 -0.034120783
000210 09 47 01 bd cb 20 f5 bc 62 87 ce 3c 9c 79 6a 3d
       -0.031561885 -0.029922863 0.02521104 0.057244882
000220 3d fc c2 3d d8 3f c7 bd 32 8f 86 3d e5 d8 92 3d
       0.09520767 -0.09728974 0.06570281 0.071702756
000230 1b 42 33 3d d6 cc e1 bb 23 fd 9d 3d 92 15 8e bd
       0.043764215 -0.0068908734 0.077142976 -0.06937708
000240 08 49 ad bd 3a b5 c7 3c 63 d4 d1 bb 41 d9 4f bd
       -0.08461195 0.024378408 -0.0064034923 -0.0507443
000250 8d 52 63 3d 4a 53 94 bc e3 13 b7 3d d0 2a f5 3c
       0.05549865 -0.018106122 0.0893934 0.029927641
000260 30 3f d4 3d b9 4b 1e 3d d9 29 3e bd bb 01 8e 3a
       0.103636146 0.038646434 -0.046426628 0.0010834256
000270 a6 06 79 bd e1 f2 ad bc 96 2c d5 3d a0 09 97 3c
       -0.060797356 -0.021233978 0.10408895 0.018437207
000280 3b 65 bb 3d ae 65 6b 3d 0f 7e 94 3d 82 a5 78 3d
       0.091501676 0.057470016 0.07250606 0.060704716
000290 20 68 4e 3b e0 ea ec 3b 4d f2 c4 bd 64 90 a0 bd
       0.0031495169 0.0072301477 -0.09616528 -0.0784004
0002a0 b7 af 99 3d ee a4 7f 3d 1e 99 2e 3d e9 6a f1 bc
       0.07504218 0.06241315 0.042626493 -0.029469924
0002b0 25 1d a4 3d 29 bc af 3c 7c f2 c9 3d 6e 42 38 3d
       0.080133714 0.021452026 0.09860703 0.044985227
0002c0 bb 2a 8c bd c6 da 53 bd 4a 44 ca bc aa c2 a7 3d
       -0.06844088 -0.05172231 -0.024690766 0.08191426
0002d0 5e 73 96 bd c6 83 02 bd cc 66 f5 3c fa 35 28 bd
       -0.07346223 -0.03186395 0.029956244 -0.0410671
0002e0 68 f1 5e bd d0 d5 6a bc ca 64 96 bd b1 1a 3a bd
       -0.05442944 -0.014333203 -0.07343443 -0.04543561
0002f0 d0 67 e2 bb 3c 07 17 bd 94 fe 29 bd d4 5a fd 3c
       -0.006909348 -0.036872134 -0.04150255 0.0309271
000300 40 04 a6 3a 80 9c f0 3a 72 f8 20 3d 80 fe 80 bd
       0.0012666062 0.0018357188 0.039299436 -0.06298542
000310 ae 5a 68 bd 00 d2 c0 39 61 ac b7 3d af 25 95 3d
       -0.056727104 0.00036777556 0.089684255 0.07282578
000320 90 5e d5 bb 56 7b 26 bd 62 ed 7a 3d 3c bb 16 bd
       -0.006511517 -0.040644966 0.061261542 -0.036799654
000330 4c ef ce 3c 46 cf 94 bd 15 90 a1 3d 6c 11 d8 3c
       0.02526059 -0.07266097 0.078888096 0.026375495
000340 ec d7 27 bd 81 42 b3 3d b1 0a a5 3d a8 1a 13 3c
       -0.040977404 0.08752919 0.0805868 0.008978523
000350 79 1f b2 3d 78 9a 2c 3c 31 83 80 bd 82 a0 7a bd
       0.08697409 0.010534875 -0.06275023 -0.06118823
000360 57 81 8b 3d 65 e9 d3 bd ad 57 c8 3d 2c 2f 68 bd
       0.06811779 -0.10347251 0.09782348 -0.05668561
000370 aa da 45 bd 64 16 21 bd ba 7c 29 bd 56 44 54 3d
       -0.048304237 -0.039327994 -0.041378714 0.051822983
000380 6c 1d b5 bd 15 c8 9d bd e7 4b 5b bd 5c 35 df bc
       -0.088435024 -0.07704178 -0.053539183 -0.027247123
000390 14 0e 46 bd 20 51 c1 bd 9f bb c6 3d ea b8 a0 bd
       -0.04835327 -0.094393015 0.09703755 -0.078477696
0003a0 88 f8 a8 bc 9a 35 9e bd c8 43 60 3c 81 ce 8b 3d
       -0.020626321 -0.077250674 0.013688035 0.06826497
0003b0 15 84 c6 3d 50 ff c5 bd 99 82 99 3d 5f 66 ae 3d
       0.096931614 -0.096678376 0.07495613 0.085156195
0003c0 ab 7c 82 bd c0 b2 58 3b dc 64 d8 3c 6f 83 50 bd
       -0.06371435 0.0033065528 0.026415281 -0.050906595
0003d0 7e 56 99 bd d5 d4 b9 bd d2 4a 61 3d 21 45 ab 3d
       -0.074872 -0.090737976 0.055002995 0.08362795
0003e0 82 0c 3f 3d 64 26 e7 bc f6 18 76 3d ab 29 cd 3d
       0.046642788 -0.028216548 0.0600824 0.10017713
0003f0 dc 0c 89 3c 0e dd 47 3d 40 37 65 3b 02 01 d0 bd
       0.016729765 0.0487948 0.0034975559 -0.10156442

conv_block_2.2.bias f4 [10]
000000 93 c5 85 3d f9 c1 8c bd c6 08 84 bd f7 29 dc 3c
       0.06531825 -0.06872935 -0.06446986 0.02687548
000010 62 d5 b7 3c 70 3b da 3c 79 b8 a8 3d 13 81 cc bd
       0.022440616 0.02663967 0.0823831 -0.099855565
000020 76 3e a9 bd 6d 90 03 3d
       -0.082638666 0.032120157

classifier.1.weight f4 [3, 1690]
000000 ad 2f b5 bc 98 c5 5e 3c 57 80 58 bc 97 fd aa bc
       -0.02211746 0.013596915 -0.013214192 -0.020872874
000010 9a a2 b4 bb 85 05 0d bb 71 74 b6 bc c2 54 bc bb
       -0.0055125477 -0.0021518182 -0.02227232 -0.0057474086
000020 00 c1 0c bc 4a 0d c3 3b 97 7a 55 ba f0 21 73 bc
       -0.008590937 0.005952512 -0.00081435725 -0.014839634
000030 33 6e 71 bc f6 8f 95 bc 5e db 93 bb 40 d5 7d bb
       -0.014735746 -0.018257122 -0.0045122346 -0.0038731843
000040 69 c9 9c 3c 9b cf 86 3c ed d7 cc bb 3f 96 a0 3c
       0.019139009 0.016456416 -0.0062513263 0.019602893
000050 88 93 a2 bc 7b 7c 1c 3c d6 a8 75 3c 99 d0 98 bc
       -0.019845739 0.009551163 0.014993867 -0.018654155
000060 34 84 d1 3b fe 1c 07 bc 3f 2b 28 3c 2c 26 1c bc
       0.0063939337 -0.008246658 0.010264217 -0.009530585
000070 5a dc ad 3c 88 bc bd 39 23 c4 82 bc f6 2f 42 bc
       0.021223236 0.00036189356 -0.015962666 -0.011852255
000080 44 f6 65 3c 6b 21 45 bc e6 74 5c 39 a5 79 82 3b
       0.014035765 -0.012031893 0.00021024383 0.0039817863
000090 60 e0 68 bc b3 05 41 bc 68 77 90 bc e0 6d 7b bc
       -0.014213651 -0.011781144 -0.017635062 -0.01534602
0000a0 e9 fc 97 b9 c7 3b 25 bc f1 1b 2f bc 6f 8a a5 3c
       -0.00028989397 -0.010085053 -0.010687814 0.020207612
0000b0 82 57 e0 ba 49 d8 05 3c bc 70 c5 3c de 98 6e 3c
       -0.0017115923 0.008169242 0.024101608 0.014562814
0000c0 45 78 d3 b9 31 4e 98 3a ae 48 4c bb d4 41 37 3c
       -0.00040334664 0.0011619983 -0.003117125 0.011185128
0000d0 d7 87 a3 bc 54 11 bf bb c3 2a 57 bc 3d fb f9 bb
       -0.019962234 -0.005830923 -0.013132754 -0.007628827
0000e0 c1 39 42 3c 45 f1 12 ba 70 5e 35 bc ec b0 96 bc
       0.01185459 -0.000560541 -0.011069879 -0.01839491
0000f0 1d 77 17 3c 4c 88 99 3c 36 2e 0a 3c 19 51 c7 3c
       0.009244707 0.01874175 0.008433869 0.024330663
000100 19 56 62 3c e1 e8 c5 ba 38 cc 38 bc 64 33 a1 3b
       0.013814473 -0.001509931 -0.011279158 0.0049194563
000110 d3 bf 5c 3b 57 37 30 bc b5 5f 18 bc dd 85 74 3c
       0.0033683672 -0.010755382 -0.009300162 0.014924494
000120 c5 33 26 3c 95 51 b4 bc f8 3a c0 3b af 85 cc 3b
       0.010144179 -0.022011558 0.0058664046 0.0062415223
000130 f9 c7 57 bc c1 38 b5 3c 7d 88 8e 3c ae f8 9a bc
       -0.013170236 0.022121789 0.017399067 -0.018917408
000140 09 8f 8b 3c 0d 9d b1 3c 0f e5 8a bc 65 b3 12 3c
       0.017035978 0.021681333 -0.016954927 0.008953904
000150 44 54 13 bb 0f 55 11 3c 88 96 b0 bc 4a 1f b3 bc
       -0.0022480646 0.008870377 -0.021556154 -0.021865506
000160 95 7e 0c bc 3f 7a 4b 3b 4b 5c 93 3c 7a 4b 06 bc
       -0.008575101 0.0031048206 0.017988345 -0.008196706
000170 d8 af 16 3c 50 0f 99 3c 8e 73 a8 bb 6f 98 c2 3b
       0.009197198 0.01868406 -0.0051407283 0.0059385817
000180 53 6f 94 3c 8c 67 43 bb b4 08 bd 3b 9b 6f 96 3c
       0.01811949 -0.0029816357 0.0057688598 0.018363765
000190 66 0f 4e bb 8d 99 40 bb 0f 8e 34 bc a2 09 89 bc
       -0.0031442284 -0.0029388398 -0.0110201975 -0.016728226
0001a0 59 3f 90 3a 3b 82 65 3b e6 ef 98 3b a3 06 4c 3b
       0.0011005207 0.003502025 0.00466727 0.0031131885
0001b0 5b 34 61 ba 23 37 76 bc 27 17 08 bc c0 80 b3 bc
       -0.00085908704 -0.015027794 -0.008306301 -0.021911979
0001c0 12 30 74 3b c0 6d 33 bc 16 6a 8d bc 9f ca b4 3c
       0.0037260097 -0.010951459 -0.0172625 0.022069274
0001d0 26 25 a9 bc f9 81 9b bc 91 74 bb bb 8c 75 f6 bb
       -0.020647597 -0.018982874 -0.005720683 -0.007521337
0001e0 86 39 86 bb 88 34 b8 3c 42 c2 ae 3c 18 42 63 bb
       -0.004096213 0.022485986 0.021332864 -0.0034676846
0001f0 06 67 40 bc dd 0e 05 3c 64 ce 16 3c 06 b8 64 3c
       -0.011743313 0.008121219 0.009204481 0.01395989
000200 5f 21 5a 38 7b 4b 82 3b 44 c9 47 bc b0 64 65 bc
       5.200633e-05 0.003976283 -0.012193982 -0.014001057
000210 77 4f a4 3c 12 e3 9a 3b a7 08 a8 bc 04 ef a2 3c
       0.020057423 0.004726776 -0.020511938 0.019889362
000220 e3 02 99 3c 7a e9 ab 3b fc 91 b2 3b f7 cd 6c bb
       0.018678134 0.0052463384 0.0054495316 -0.0036133507
000230 59 62 44 bc 50 a7 ba bc 23 dd bf bc 06 06 56 3c
       -0.0119863385 -0.022784859 -0.023420876 0.01306296
000240 33 c8 81 3b bb 1b c4 bc 15 2e 3b 3c aa 8f 14 bb
       0.003960633 -0.023939004 0.011424561 -0.0022668638
000250 3b 5d 10 bc a3 6c ba 3b a0 1e 0e 3c 80 8e a9 3c
       -0.00881129 0.00568922 0.008674294 0.020697832
000260 2a 3b 5a 3b 4f ca c2 bb ae 4e e4 bb ad 4d ac bc
       0.0033299425 -0.005944527 -0.006967387 -0.021033132
000270 6c d7 90 bc a6 55 4a 3b ad c7 2c 3b da 29 c6 3a
       -0.017680846 0.0030873804 0.0026364133 0.0015118674
000280 7d c3 e6 ba 9a b1 1f bc 91 e9 e6 bb a8 9e 90 bc
       -0.0017605867 -0.009746933 -0.0070468863 -0.017653778
000290 43 21 5a bb a8 55 0c 3c 24 17 04 3b c0 07 92 ba
       -0.0033283986 0.008565344 0.0020155394 -0.0011141226
0002a0 e6 a7 9e 3c 5e 56 80 bc cc ea 67 bc 25 2f c6 3c
       0.01936717 -0.015666183 -0.014155101 0.024192402
0002b0 cd cd 29 bc 80 2d 35 3b a8 63 38 bb f1 ed 81 3c
       -0.010364008 0.0027645528 -0.0028135572 0.01586053
0002c0 49 02 a0 3c ca 6e 52 bc f9 57 c9 bc a8 fc 02 bc
       0.01953234 -0.012843797 -0.024578081 -0.007994808
0002d0 42 70 ec 3b 46 97 06 bc d2 25 31 bc a8 96 40 bc
       0.0072155306 -0.008214777 -0.01081224 -0.011754669
0002e0 80 54 01 3a 7a 0e 26 3c 11 75 a7 3c 45 68 a8 3c
       0.0004933551 0.010135287 0.020441564 0.020557532
0002f0 d4 64 fb 3b 36 83 9f bc f9 89 1e bc cd f5 c0 3c
       0.0076719318 -0.019471746 -0.00967645 0.023554707
000300 1d 0a 75 bc 1b 93 b0 3c 0c 9b d8 3b 14 b5 eb bb
       -0.0149560245 0.02155452 0.00661028 -0.007193217
000310 34 45 b6 3b ce de 2b 3c b1 6d ad bc bb f5 72 bb
       0.005562449 0.0104901325 -0.021170469 -0.0037072736
000320 ee ac 33 3c 6e 4e 79 3c 19 35 95 3c 49 a3 99 bc
       0.010966523 0.015216453 0.018213795 -0.018754618
000330 5b 09 3d bc c5 fb a2 3c 1e bc 76 3c 31 be a7 3b
       -0.011537875 0.019895444 0.015059499 0.005119108
000340 7d 23 b6 3c 89 d0 42 bc 08 4c 6f 3b 68 40 24 3b
       0.022233719 -0.011890539 0.0036513824 0.0025062803
000350 ab 91 c6 3c 1a 25 7a 3c d1 71 46 3b 69 ec c2 3c
       0.024239382 0.015267635 0.0030280242 0.02379437
000360 a6 27 1a 3c 02 99 86 bc f3 58 5e bc 80 39 40 3a
       0.009408867 -0.016430382 -0.013571012 0.0007332787
000370 aa ff 12 3c cf 0c 9c 3c 75 c5 5d bc 7e d1 0c bc
       0.008972088 0.019049076 -0.013535847 -0.008594869
000380 39 bd a2 3c a5 6c b3 3c 16 85 07 3c d2 d4 4d 3b
       0.019865619 0.021902392 0.008271476 0.0031407368
000390 d6 fd 1d 3c 75 62 f5 bb 99 ab 84 3c 08 4e 4a 3b
       0.009643039 -0.0074885436 0.016195105 0.0030869264
0003a0 f8 8e e1 3b ff d8 88 3b 4e 92 c6 bc f4 2a 85 3b
       0.0068834983 0.0041762586 -0.024239685 0.0040639583
0003b0 fc 7f d3 3b c7 b8 86 bc a4 ab 03 bc 20 99 9d ba
       0.006454466 -0.01644553 -0.008036528 -0.0012023784
0003c0 59 42 b6 ba cc 2b ef b9 42 cb 76 3c 93 92 9c 3b
       -0.0013905271 -0.00045618264 0.015063109 0.004778215
0003d0 7a 92 12 bc eb 14 53 3c 99 a4 24 bc 57 0a 9d bc
       -0.008946056 0.012883405 -0.010049009 -0.01916997
0003e0 fc 08 d1 3b b6 55 09 3c 66 d9 90 bc d4 a8 b4 bc
       0.006379245 0.0083822515 -0.017681789 -0.02205316
0003f0 23 ef 92 3c 74 e7 a9 bb 30 ca b8 ba dd a4 62 3c
       0.017936295 -0.005185062 -0.0014098343 0.013833252

classifier.1.bias f4 [3]
000000 97 83 b6 3b 45 52 a2 ba 47 8c ad bc
       0.005569886 -0.0012384137 -0.021185054
