machine_learning_mini_projects/NLP_chatbot/data.pth (torch, 5183 bytes, 6 tensors)

l1.weight f4 [8, 58]
0.3789305 0.65364766 -0.43236873 -0.12080717 -0.35466865 0.564187 -0.14457998 -0.26234096
-0.28672642 -0.17753495 -0.13387607 -0.12837097 -0.014843977 -0.11348105 0.48775345 0.60846156
-0.10560168 0.4740624 -0.25013033 0.50609 -0.15496705 -0.35588694 0.49538827 -0.38061017
-0.3250008 -0.21935076 -0.21274975 0.0001329534 -0.088977575 0.6640871 -0.101386644 0.51903164
0.23772842 0.380476 0.12524879 0.25789037 -0.31618512 0.72090584 -0.18488275 0.046369284
-0.12212581 0.36949807 -0.13078573 0.0047419798 0.32009715 -0.2515259 -0.10606999 0.7727279
-0.30878818 0.66076595 0.7244152 0.47314805 -0.07242883 -0.24300967 0.034782402 -0.1450588
-0.10748837 0.17694509 -0.24544576 0.4810943 0.41540122 -0.26119038 0.03460001 0.007561984
0.22740431 0.11826831 0.5892584 0.16323985 -0.21764685 0.774302 0.7337145 0.6307758
0.44094238 0.35757852 0.4809808 0.30108792 -0.16547653 -0.07630161 0.4498019 -0.31707263
-0.11151529 -0.32935202 -0.39692792 0.3523602 0.61257327 -0.3433954 0.56371534 0.69958615
0.5543043 0.32822895 -0.09680623 0.37088254 0.63529515 -0.21570618 0.36522755 0.6675427
0.38064286 0.4204819 0.6228981 0.46310967 0.3878649 0.38969555 0.07166057 0.54260147
0.7131046 0.5242552 0.8311094 0.5825144 -0.5274022 -0.15057476 0.20975877 0.5756894
0.5762269 0.31285992 0.17983934 0.02197066 -0.0023652106 0.32015565 0.46592462 0.14614882
0.31674197 0.21917625 0.29553077 0.31593415 0.3040209 0.26681268 0.11167275 0.05966863
0.18475945 0.039575145 0.4315247 0.31221083 0.09824317 0.40853927 0.17030692 0.21045394
-0.39610046 0.28595755 0.2706437 0.22823939 0.2481628 -0.27576458 0.26629102 0.21700545
-0.10976999 0.25746757 -0.084941246 0.32537043 0.21745369 0.28596044 0.08633291 -0.026567305
0.3893602 0.3943564 -0.14644429 0.074605085 0.3468536 0.41419628 0.42733556 0.24120642
0.25569373 -0.37616682 0.07904744 0.29802203 0.33986336 0.46468866 0.30141532 0.24763028
0.114694595 -0.41510203 0.04211664 -0.24320793 0.22181055 0.31372657 0.28365818 0.54221
-0.33348268 -0.26324096 -0.5398698 0.7943768 -0.21030636 -0.3372483 -0.0966005 -0.2425772
-0.25141424 0.58275676 -0.156173 0.5966196 0.2069479 0.22610457 0.2600942 0.18175088
-0.35187235 0.7178559 -0.3503886 -0.5732168 0.34463927 -0.60035896 -0.60328704 -0.16181916
0.12294266 -0.12438773 -0.11999617 0.46899238 0.028886164 0.41051292 0.50106895 0.29102063
0.63040715 0.2591186 -0.34197834 0.10116528 0.26365253 0.053695288 -0.19521868 0.20203887
-0.10120406 -0.2803246 0.54848087 -0.28665653 0.4745513 0.124311306 -0.09532704 0.11212534
0.7736688 0.50495124 -0.21571565 -0.38899285 0.34562537 -0.20410928 -0.13450056 0.22817297
-0.29960364 -0.14473356 -0.49287945 0.28615603 0.3276972 0.78662467 -0.15543024 -0.19475399
-0.5883595 -0.4121341 0.57008946 -0.21520288 0.34516 -0.17145969 0.03236735 -0.14415042
0.026116587 -0.11366819 0.39262772 0.6347512 0.34177193 0.54745674 -0.32129666 0.5396594
00000000: 2e03 c23e 7455 273f 6f5f ddbe c069 f7bd
00000010: 2197 b5be 8f6e 103f c60c 14be 8e51 86be
00000020: cecd 92be b9cb 35be cf16 09be ae73 03be
00000030: 2734 73bc c168 e8bd d2ba f93e 23c4 1b3f
00000040: b245 d8bd 4fb8 f23e 1511 80be 1d8f 013f
00000050: afaf 1ebe d036 b6be 88a3 fd3e 56df c2be
00000060: 8166 a6be 7c9d 60be 12db 59be 6869 0b39
00000070: e039 b6bd 9d01 2a3f cda3 cfbd 42df 043f
00000080: 146f 733e c0cd c23e 3841 003e 350a 843e
00000090: 04e3 a1be 498d 383f e751 3dbe b8ed 3d3d
000000a0: 191d fabd da2e bd3e b2ec 05be 9c62 9b3b
000000b0: c6e3 a33e 01c8 80be 393b d9bd 7fd1 453f
000000c0: 7c19 9ebe f527 293f 4673 393f 7640 f23e
000000d0: 9155 94bd 87d7 78be fe77 0e3d 4b8a 14be
000000e0: dd22 dcbd 1831 353e 2256 7bbe fe51 f63e
000000f0: 78af d43e bfba 85be bdb8 0d3d 85ca f73b
00000100: addc 683e a836 f23d a3d9 163f 5928 273e
00000110: d1de 5ebe a838 463f b7d4 3b3f 867a 213f
00000120: 33c3 e13e 8814 b73e 1e43 f63e 3228 9a3e
00000130: ae72 29be 0544 9cbd 6f4c e63e 5857 a2be
00000140: 2162 e4bd d4a0 a8be 233a cbbe 8e68 b43e
00000150: 9ad1 1c3f 86d1 afbe a64f 103f 1418 333f
00000160: e3e6 0d3f a00d a83e 5842 c6bd 51e4 bd3e
00000170: b4a2 223f 15e2 5cbe 1bff ba3e 14e4 2a3f
00000180: 9fe3 c23e 6749 d73e 4076 1f3f b61c ed3e
00000190: 3a96 c63e 2d86 c73e c7c2 923d eee7 0a3f
000001a0: 068e 363f 9735 063f 96c3 543f aa1f 153f
000001b0: d503 07bf 4530 1abe 01cb 563e 6160 133f
000001c0: 9b83 133f 2d2f a03e ce27 383e d0fb b33c
000001d0: a601 1bbb 71eb a33e ac8d ee3e 09a8 153e
000001e0: 012c a23e bd6f 603e cf4f 973e 1fc2 a13e
000001f0: a1a8 9b3e ac9b 883e afb4 e43d 1867 743d
00000200: 9531 3d3e 8c19 223d cef0 dc3e 19da 9f3e
00000210: b733 c93d 0f2c d13e f064 2e3e 3d81 573e
00000220: aecd cabe 0769 923e d091 8a3e 96b7 693e
00000230: 641e 7e3e 0431 8dbe 4c57 883e ad36 5e3e
00000240: 17cf e0bd cad2 833e adf5 adbd f496 a63e
00000250: 2eac 5e3e 6869 923e 4fcf b03d ada3 d9bc
00000260: 385a c73e 15e9 c93e 7ef5 15be 8dca 983d
00000270: cc96 b13e 8911 d43e bacb da3e d1fe 763e
00000280: 4aea 823e f098 c0be a0e3 a13d 5896 983e
00000290: 9202 ae3e aceb ed3e 1c53 9a3e cb92 7d3e
000002a0: 00e5 ea3d 4188 d4be 7f82 2c3d 800b 79be
000002b0: 4e22 633e c5a0 a03e a53b 913e 46ce 0a3f
000002c0: 3ebe aabe 85c7 86be e834 0abf 475c 4b3f
000002d0: 8d5a 57be cfab acbe 7cd6 c5bd 2866 78be
000002e0: 5eb9 80be 8c2f 153f d1eb 1fbe 10bc 183f
000002f0: 26ea 533e f587 673e 112b 853e e71c 3a3e
00000300: 9d28 b4be 67c5 373f 2266 b3be 56be 12bf
00000310: 8f74 b03e 20b1 19bf 0571 1abf ecb3 25be
00000320: 5cc9 fb3d ffbe febd 8dc0 f5bd c51f f03e
00000330: ada2 ec3c c02e d23e 0e46 003f a800 953e
00000340: 5d62 213f 31ab 843e c917 afbe be2f cf3d
00000350: 77fd 863e 97ef 5b3d 68e7 47be 47e3 4e3e
00000360: 1344 cfbd b586 8fbe 3e69 0c3f a5c4 92be
00000370: 63f8 f23e ed96 fe3d d33a c3bd f8a1 e53d
00000380: 290f 463f 7c44 013f 90e4 5cbe 122a c7be
00000390: cff5 b03e 0602 51be 84ba 09be 2da6 693e
000003a0: a665 99be 0935 14be b25a fcbe 0b83 923e
000003b0: edc7 a73e 3c60 493f 1b29 1fbe 976d 47be
000003c0: ba9e 16bf 3e03 d3be 62f1 113f 255e 5cbe
000003d0: d0b8 b03e 2193 2fbe a093 043d 2b9c 13be
000003e0: 74f2 d53c deca e8bd 8006 c93e 0e7f 223f
000003f0: bbfc ae3e 2026 0c3f ff80 a4be 1e27 0a3f

l1.bias f4 [8]
0.58643466 0.5073738 0.72784126 0.60333574 0.8119898 0.237327 0.52006 0.5992419
00000000: 9520 163f 40e3 013f ce53 3a3f 3674 1a3f
00000010: 90de 4f3f d905 733e a722 053f eb67 193f

l2.weight f4 [8, 8]
-0.15990609 0.8859466 0.7806074 -0.029892754 -0.7749224 0.42425206 -0.85298413 0.44707263
1.2840301 -0.88463956 1.169513 0.7212199 0.501528 -0.33920082 0.13285695 0.8904037
0.0046646236 -0.3634352 0.22333275 -0.2995619 0.11299826 -0.36462948 -0.34664416 0.13375881
0.66052043 -0.25383717 0.51292443 0.10158016 -0.98777455 1.1881762 -0.30044445 1.2076044
-0.8742986 0.28837812 0.52819175 -0.92861897 1.1878564 0.028182361 1.2949075 0.5159813
-0.4662617 1.1901731 0.804695 -0.460233 -0.101386145 0.02071606 -1.1497964 0.3793306
0.41014266 0.40117154 0.014524006 -0.5581801 0.5092592 0.8444919 1.0423335 -0.12584205
1.0319467 1.1789358 0.438336 0.9649759 0.74165994 0.90237844 -0.7631822 -1.2044104
00000000: 6cbe 23be 65cd 623f e3d5 473f a6e1 f4bc
00000010: 5061 46bf 9137 d93e 2b5d 5abf b4e6 e43e
00000020: 195b a43f bd77 62bf 9ab2 953f dea1 383f
00000030: 2464 003f bbab adbe a70b 083e 7ff1 633f
00000040: b3d9 983b 2e14 babe 57b1 643e 2d60 99be
00000050: a26b e73d b7b0 babe 587b b1be 12f8 083e
00000060: de17 293f f2f6 81be 044f 033f 4209 d03d
00000070: cbde 7cbf 2816 983f dbd3 99be c892 9a3f
00000080: 08d2 5fbf 4ca6 933e 9337 073f f9b9 6dbf
00000090: ae0b 983f b2de e63c 87bf a53f 5a17 043f
000000a0: dbb9 eebe 9857 983f 7e00 4e3f a9a3 ebbe
000000b0: 8aa3 cfbd bab4 a93c 872c 93bf 9f37 c23e
000000c0: 38fe d13e 5b66 cd3e 19f6 6d3c e4e4 0ebf
000000d0: d05e 023f 9f30 583f 2f6b 853f bddc 00be
000000e0: d416 843f 5ee7 963f 946d e03e a908 773f
000000f0: 6ddd 3d3f 4602 673f e95f 43bf 1f2a 9abf

l2.bias f4 [8]
0.25700888 0.6032119 -0.32172525 0.21419463 0.78407604 0.08157855 -0.242791 0.2692099
00000000: ab96 833e 186c 1a3f 2cb9 a4be d655 5b3e
00000010: 35b9 483f a812 a73d 349e 78be e1d5 893e

l3.weight f4 [7, 8]
0.5597772 -0.9760041 0.058585986 -1.2354553 -0.733738 0.5435766 -0.34868336 0.68375814
0.11933555 -0.18356359 -0.2335426 0.3382053 -1.0894544 0.027564 0.5187179 0.24107452
-0.8678757 0.8054606 0.28608608 -1.3017701 -0.32338458 -0.7715324 -0.8981907 0.77796125
-0.7074754 0.63432854 -0.2455526 -0.5065681 0.87472963 -0.7737144 0.30474663 -1.2085011
-0.4003887 -1.1768396 0.31047532 -0.82789034 0.47221163 -0.37730736 0.681394 0.35066465
0.40519208 -0.24669929 0.31550846 0.3218322 0.12102482 0.8204218 -0.4671079 -0.7031453
0.13972083 0.7786363 -0.2836506 0.8732486 -0.7382846 -1.367462 -0.9746326 -0.6478316
00000000: 8f4d 0f3f 68db 79bf dcf7 6f3d 6623 9ebf
00000010: 41d6 3bbf d627 0b3f a086 b2be c60a 2f3f
00000020: 3266 f43d 18f8 3bbe cb25 6fbe 3f29 ad3e
00000030: 3e73 8bbf e6cd e13c b2ca 043f 3ddc 763e
00000040: 1a2d 5ebf aa32 4e3f e079 923e 67a0 a6bf
00000050: aa92 a5be 2683 45bf d3ef 65bf 7828 473f
00000060: 1c1d 35bf 5b63 223f 2472 7bbe 72ae 01bf
00000070: 48ee 5f3f 2612 46bf c007 9c3e 2ab0 9abf
00000080: bfff ccbe aea2 96bf 9ff6 9e3e 9ff0 53bf
00000090: b9c5 f13e 6e2e c1be d66f 2e3f 518a b33e
000000a0: 5675 cf3e bd9e 7cbe 538a a13e 31c7 a43e
000000b0: dcdb f73d 2a07 523f c428 efbe 5501 34bf
000000c0: fa12 0f3e b554 473f a73a 91be 388d 5f3f
000000d0: 3800 3dbf ff08 afbf 8681 79bf 4bd8 25bf

l3.bias f4 [7]
-0.1981219 -0.6494454 0.12413223 0.5072637 -0.24087808 -0.21911345 0.011837719
00000000: 78e0 4abe 0e42 26bf 0a39 fe3d 09dc 013f
00000010: bea8 76be 475f 60be fef2 413c
